PIA/Tarefa75/lightning_logs/version_201/checkpoints/epoch=99-step=800.ckpt (torch, 101707 bytes, 15 tensors)

layer1.weight f4 [100, 25]
00000000: 6f47 6b3d 9e52 753e b848 743d 1a3e 9f3c
00000010: a829 0c3f cfa2 53be 5fb4 3cbe edb3 ab3e
00000020: d328 dc3d 2044 293f f854 083f 5a37 443f
00000030: 35ed d93e 62ba 373f 0b58 a23e 1a07 16be
00000040: a011 213f 1d85 853f e5f8 533f 30c5 fe3e
00000050: 21b9 17be 487e 383f 179d e2be bb9c 18bf
00000060: 1b45 2ebf 4d78 893e d3ac 223f 5cb0 b53d
00000070: 1bfc 33be 4252 373e 28f7 a7bd 9de6 70be
00000080: 3ee9 be3e e7da 13be 40e9 393f 1786 553f
00000090: e1b3 f73e fe09 b33e 0550 083f 68aa 3cbe
000000a0: 130b 8cbe 9cb2 3b3f 2422 863f e881 2f3f
000000b0: fb7e 233e 1345 a23d c51e 5a3f 9d14 38be
000000c0: f0ed 33bf c557 45bf a337 02be 40a2 a93e
000000d0: 2ea8 873e 4b8d 85be 7aff f63e c37e 18bf
000000e0: ce75 a23e 491c 353e 5ae7 0d3d 7c1f 3e3f
000000f0: be02 4a3f d99e 3d3f 4dd4 c83e af68 d93e
00000100: 61ed e43d 8849 3ebd c155 dd3e 2bf6 2d3f
00000110: 5819 563f 1893 7f3e e5cd d4bd 7aa7 e63e
00000120: f473 3cbf 3236 4bbf 9c7d 1dbf f537 4dbe
00000130: 3fc9 5c3e 3adf 76be 7925 be3d 22f0 823e
00000140: ae4e dfbe b13b 1ebd 8ea0 d83e cd30 9c3d
00000150: ff5f 3b3f 737a 4b3f e6fc 343f 1454 493e
00000160: 0bf8 413f 051f 463e 1b98 e93d d7e9 433f
00000170: eb03 613f fc92 763f 66e5 8e3e 5e5f 143e
00000180: a550 603f 4500 d3be 76a5 7dbf f1a5 50bf
00000190: ebb4 b3be a7c9 b33e 2da6 8bbe 7dd4 5ebe
000001a0: 3450 0f3f bb0d 453e 9d67 c7be eb77 2d3f
000001b0: 6da4 1d3e 7c8a 293f 5c05 ce3e 0502 853e
000001c0: 3db6 cb3d 4a06 f73e eb8f a1bc 98ac 64be
000001d0: c693 023f 0c9b fc3e 45c3 223f deda c93e
000001e0: 3a8b 053d f38a eb3e f5f4 d9bc c66c 4abf
000001f0: 7066 1fbf 614b 40be 7f09 e33d 5cd6 3bbd
00000200: cc07 bc3d ea4e c63c 3530 31bf aa34 0a3f
00000210: d8a4 0e3e 15fe 1d3e 5e55 143f 418e 5d3f
00000220: 89d6 4e3f f8b8 483f 3c64 303f 6476 523e
00000230: c88d 083e 6b02 183f 6e9d 573f f0e4 f93e
00000240: 3d41 b6bd 4a86 9bbe eadc 453f dc5e babd
00000250: 810e 34bf 952a 67bf e001 fb3c 2991 73bf
00000260: e34d fa3d 3de1 c6be 8a9a 103e 8fcd 823d
00000270: 8c0a 97be 85c4 74bf e279 073e cb69 13bf
00000280: 6ffd 1bbf f6e7 cdbe 2d2b a1be bb90 b7be
00000290: 8ddc 383f 833a 2abf 03b8 08bf ea89 24bf
000002a0: ac0e 8abe dd90 80be fa03 953e 0803 88bf
000002b0: ac9d 54bf 3085 263f 4fa2 343f b383 1d3e
000002c0: d735 e23e 8a55 9dbd d5a0 97be 1959 973e
000002d0: f064 bbbc 5ee7 02bd cfd9 303f f369 e5bc
000002e0: a38e fd3e f83e 533f 648a e33e b246 d73e
000002f0: c21d 233f f7db 7ebd 724b 70bd 0527 263f
00000300: a2b2 7f3f c4cc cc3e 36d5 ee3e a184 773e
00000310: d331 f33e 06f8 19be 13db 63bf d355 10bf
00000320: 7a73 b4be 8e06 d73e 0e79 5d3d e2a0 0dbd
00000330: 71b5 9a3e 999c 14bf 23f8 ed3c 7114 f33e
00000340: 3399 85bb 3f58 253f 4560 713f 3fa4 473f
00000350: dd0c 0b3f dde7 0b3f f23d 963e 508b 3bbe
00000360: e66e 1f3f 0e52 613f e9ff 763f 7c3c 2a3d
00000370: a0c2 4f3e 5d6f 3e3f f5e2 1fbf ea90 59bf
00000380: 84f1 49bf 1edd 913e 931a f63e 72d7 533e
00000390: 3df0 3fbe 4c03 f43d 1fa2 7fbe 13b9 25be
000003a0: c686 053f 004d 15bd 44dc 053f 7409 473f
000003b0: 5a0a 273f b7cf e83e e6cd 4c3f e965 a43d
000003c0: 60d5 14be 462b 283f 64c0 8a3f 70c5 073f
000003d0: 2281 bcbd 1510 163e 1bb5 2b3f b02a e03d
000003e0: d46e 78bf 525d 5ebf 4112 c2bc 635f 8e3e
000003f0: 104a cdbe 4748 5cbd f565 e93e 4735 a7bd
0.05744117 0.23957297 0.059639663 0.019438792 0.5475106 -0.20667575 -0.18428181 0.3353571
0.10749974 0.66119576 0.5325465 0.7664696 0.42563787 0.7176877 0.31707796 -0.14651147
0.6291752 1.0431248 0.8280166 0.49759817 -0.14816715 0.7206769 -0.44260475 -0.5961415
-0.68074197 0.26849595 0.6354496 0.088715285 -0.1757664 0.17902473 -0.08201438 -0.23525472
0.37287325 -0.14438973 0.72621536 0.8340773 0.48379424 0.3496856 0.532471 -0.1842438
-0.273522 0.7331941 1.0479169 0.68557596 0.15966408 0.07923331 0.852032 -0.17976613
-0.7028494 -0.7708705 -0.12716536 0.331316 0.26495498 -0.2608436 0.48241788 -0.59568423
0.31730503 0.17686571 0.034644462 0.7426679 0.78910434 0.7407051 0.39224473 0.4246268
0.11178089 -0.046456844 0.43229488 0.6795375 0.8363242 0.24958456 -0.10390834 0.4504965
-0.7361443 -0.7937957 -0.6151979 -0.20040877 0.21561144 -0.24108592 0.09284491 0.25573832
-0.43614715 -0.038631145 0.42309994 0.076264955 0.73193353 0.7948372 0.7069839 0.1966098
0.7576911 0.1934777 0.11405965 0.76528686 0.87896603 0.9631803 0.27909392 0.14489505
0.87623054 -0.41211143 -0.990806 -0.81503206 -0.35098967 0.35114786 -0.2727522 -0.21760745
0.55981755 0.19243519 -0.38946238 0.67761105 0.15394755 0.66226935 0.40238464 0.25978103
0.099468686 0.48246986 -0.019721946 -0.22331464 0.51006734 0.4933704 0.6357921 0.39424795
0.03260348 0.46004447 -0.026606062 -0.79072225 -0.6226568 -0.18778755 0.110857956 -0.045858726
0.09181175 0.024207551 -0.69214183 0.5398661 0.1393007 0.15428956 0.5794276 0.8654519
0.80796105 0.7840724 0.68902946 0.20552975 0.13335335 0.5937869 0.84224594 0.48807478
-0.08899162 -0.30375892 0.77290213 -0.09100124 -0.7033463 -0.9029935 0.030640543 -0.9514337
0.12221887 -0.38843718 0.14121452 0.063868634 -0.29500234 -0.95612365 0.13230088 -0.575833
-0.60933584 -0.40216035 -0.31478253 -0.35852608 0.72211534 -0.6649553 -0.5340578 -0.6427294
-0.2696432 -0.25110522 0.29104596 -1.0625925 -0.8305309 0.6504698 0.70560163 0.1538227
0.44181702 -0.07682331 -0.29614893 0.29560164 -0.02287528 -0.03195893 0.6908235 -0.028004622
0.49522886 0.8251796 0.4444152 0.42046124 0.6371728 -0.062221494 -0.0586657 0.6490329
0.9988195 0.39999974 0.46647042 0.24171688 0.4749895 -0.1503602 -0.89006156 -0.5638096
-0.35244352 0.41997188 0.054070525 -0.034577258 0.30216554 -0.5805145 0.029048985 0.47476533
-0.0040771007 0.6458778 0.9428752 0.77984995 0.543165 0.5465067 0.29344136 -0.18314862
0.6227859 0.8801583 0.9648424 0.04156159 0.20289087 0.74388677 -0.62455684 -0.84986746
-0.7888415 0.28489012 0.4806715 0.20687655 -0.18743987 0.11914691 -0.24964188 -0.16183881
0.5215877 -0.036450386 0.52289224 0.777488 0.6525017 0.45470974 0.80001676 0.0802725
-0.14534521 0.6569103 1.0839963 0.5303564 -0.09204318 0.14654572 0.6707322 0.10945642
-0.9704411 -0.86861145 -0.023690345 0.2780715 -0.40095568 -0.053779867 0.455856 -0.08164459

layer1.bias f4 [100]
00000000: 157e 6d3f 859d 883f 30bc 933f e0ce 793f
00000010: 2cbe 793f ae16 673f 7694 803f ce78 8b3f
00000020: 8b68 813f 370d 7f3f e019 553f 5311 823f
00000030: 6a21 8c3f 531f 7b3f 8de2 8d3f 8c3a 8c3f
00000040: d342 863f d943 b13f edf0 633f 62ba 613f
00000050: f1c0 923f 780e 813f 8a4d a83f 1ca4 8d3f
00000060: c81f 913f 206d 5d3f 91ae 9c3f ac8f 6a3f
00000070: 6c69 5d3f a34c 963f 07b2 8e3f 00d1 923f
00000080: a9d6 523f 7e34 7c3f cc9c 643f 5d81 803f
00000090: c27c 743f ae00 6f3f 9194 973f 1cb9 943f
000000a0: 7624 543f be08 523f e865 8c3f 7f2f ad3f
000000b0: 188f 8c3f 8386 a03f b687 8c3f b973 863f
000000c0: 757a 863f 6416 af3f 5282 773f fedb 7c3f
000000d0: 666f 523f 7dc3 7d3f 991d af3f 888f 803f
000000e0: be26 8d3f b2c8 933f e736 9c3f db31 a33f
000000f0: 96e9 763f 6cce 8f3f 6cc5 9a3f 5660 583f
00000100: 1f18 623f 7099 7a3f cb7a ae3f b527 803f
00000110: cd46 4d3f 4434 763f 2fe3 9c3f 42cd 953f
00000120: 8a27 9a3f 2237 8c3f 8c09 893f b51b 953f
00000130: fa10 973f c7a7 853f 1220 a53f 28d4 a13f
00000140: 46f8 903f 04ba 6b3f b9c7 9a3f 25e1 9c3f
00000150: eac7 8e3f e8a0 973f daa1 8c3f 49d1 6e3f
00000160: 4443 7b3f a69f 583f 0f5a 613f 4d05 9a3f
00000170: c57d 8f3f fbea 7b3f b6c1 ab3f 70d2 853f
00000180: 56f8 793f 8d78 ad3f 652c 7e3f 3382 623f
0.9277051 1.0673071 1.1541805 0.9758129 0.97555804 0.9026898 1.0045307 1.0896242
1.0110029 0.9962954 0.8324261 1.0161537 1.0947697 0.9809467 1.1084763 1.0955367
1.0489143 1.384883 0.890395 0.8817502 1.1465131 1.008254 1.3148663 1.1065707
1.1337824 0.86494637 1.2240773 0.91625476 0.86488986 1.1742138 1.114808 1.1470032
0.82358795 0.98517597 0.89301753 1.0039479 0.95502865 0.9336041 1.1842214 1.1618991
0.82868135 0.8204459 1.0968599 1.353012 1.0981169 1.254105 1.0978916 1.0504066
1.0506121 1.3678708 0.9668323 0.9877318 0.8220123 0.99126416 1.3680907 1.0043802
1.1027448 1.1545622 1.2204255 1.274959 0.96450174 1.123487 1.2091498 0.84521997
0.88318056 0.9789038 1.3631223 1.0012118 0.8018616 0.961735 1.2256831 1.1703265
1.2043316 1.0954325 1.0706038 1.164908 1.1802056 1.0441827 1.2900412 1.264287
1.1325767 0.9208071 1.20922 1.2256209 1.1154759 1.184598 1.0986893 0.93288094
0.98149514 0.84618604 0.88028044 1.2032868 1.1210257 0.98405427 1.3418491 1.0454845
0.97644556 1.3552414 0.9928649 0.8847992

layer2.weight f4 [50, 100]
00000000: 7703 573f ca07 323f 321d 513f 89e5 2d3f
00000010: 4264 2e3f ac20 423f 85e9 763f 97ea 3b3f
00000020: 43a1 513f ba98 5b3f 9803 343f ad5b 5d3f
00000030: 91a8 683f 641c 313f 63d5 413f 9c9d 843f
00000040: 6744 763f cfb8 6e3f 8ffb 3d3f a887 693f
00000050: 90d2 4d3f a00f 393f 507c 863f 060a 5a3f
00000060: 1bb6 8d3f f87e 3e3f 6e15 8d3f 91af 593f
00000070: c007 2d3f 3041 413f c218 873f 977a 623f
00000080: 4490 4d3f 2e87 4b3f 950d 4d3f da4b 403f
00000090: ebcf 3b3f 359b 523f 15f5 593f 34d0 713f
000000a0: da6e 2a3f fbbf 2a3f 8f57 4e3f e079 8e3f
000000b0: 70cc 593f 9570 7c3f e976 573f 037d 523f
000000c0: ddeb 623f d718 843f 7a3a 823f a1a0 7e3f
000000d0: d167 583f b8b7 593f 8c3a 883f 0bdf 843f
000000e0: 3ab1 583f a4fc 743f 2b08 723f 1e33 893f
000000f0: c61e 2f3f dde3 4e3f 4bc4 433f 9d21 7a3f
00000100: c869 643f b80d 603f 5405 7f3f 250a 4a3f
00000110: 8791 3f3f c6a4 4b3f 12d1 4c3f 6579 3f3f
00000120: 3ea1 4a3f 6eb7 413f 30e7 493f 51b8 6a3f
00000130: 38f0 603f 2f78 413f aa72 7b3f 743b 7e3f
00000140: 058f 453f 5983 593f f747 833f 5d22 8c3f
00000150: 1413 363f fe88 843f dd36 2f3f 46e0 463f
00000160: 0260 463f 5d58 3b3f b87d 5c3f be6d 783f
00000170: 7618 4b3f 9e44 583f e717 773f b485 8b3f
00000180: 8142 833f d2ec 843f 7ca8 8d3f c5b6 403f
00000190: 5435 c7bd 2858 8abd 2837 89bd 87d8 7fbd
000001a0: 324c adbd bf2b cf3b fa91 9bbd 9854 433c
000001b0: 87da 7fbd 8b00 47bd cae2 7f3d 5693 883d
000001c0: ed93 e43c 4a0f c8bd 1d48 5b3d a00c 69bd
000001d0: 00a9 3e3d 2814 873d 04ff 2c3c 1926 84bc
000001e0: 71af 4cbd 9d7f b8bd 1b82 31bc 8a0a cb39
000001f0: a738 403d acfd 8a3d 509d c03d 195d abba
00000200: 20e7 80bc 1405 c1bd c7e4 04bd 595d 8a3b
00000210: 6014 d4bc 8ef6 6ebd 871a 503d 5de3 a53d
00000220: 16db b9bd 9165 29bb 0cef 3bbd 752e 653d
00000230: f2ab 843d 731f d0bc 8ffc 9dbd 0e1b 2bbc
00000240: f9e7 283d 0525 71bd a39b b9bd db04 bcbd
00000250: bf22 cfbd 8a73 e8bc 605a 82bd 5618 a43d
00000260: 2d31 a2bc 9b39 f1bc 0fb2 12bd 2580 923d
00000270: 4c7b febb b35d 2fbd 0da1 61bc 1d77 16bd
00000280: 89d8 893c 2a4c 6c3d d085 2f3d cbe1 193d
00000290: da46 01bd 610a 383d 2987 35bd 6dfa 893d
000002a0: 40f6 8fbd 6e2b 093b 65f4 da3c fd7a fc3a
000002b0: f3a2 cebd f974 c9bd 44e8 c6bd 5d04 a1bd
000002c0: 3146 bd3d ef28 193d 169e c8bd e41f c8bb
000002d0: 50a5 b33c 0040 54b8 5a13 abbc cd60 d6bc
000002e0: 351e 4cbd d61d a1bd 1922 a93c dc79 a8bd
000002f0: 4589 a83d fed9 a23c f0ad 963d 0fff 78bc
00000300: 69e1 0b3d 5071 a53d 88f0 a1bd f3e8 8e3c
00000310: b32d fb3c 2569 8dbd 93ca bc3d 5375 943d
00000320: 1e29 3b3f 9e18 3b3f 15c7 593f f58f 2e3f
00000330: eaf0 463f b91e 513f a8d9 733f c1fd 5a3f
00000340: 6f2f 373f 9288 2d3f 34e5 203f b7d2 453f
00000350: 0c4c 793f f602 273f 51a0 503f c37c 7c3f
00000360: 00dd 593f aebf 803f 3aa6 433f f901 603f
00000370: a303 483f cca6 443f d2e6 8d3f 7fc0 4d3f
00000380: e038 873f 267a 383f c36c 773f d4d1 2d3f
00000390: a7e6 573f e2a2 263f 5e17 893f 4696 6e3f
000003a0: 34b5 403f f444 423f 7790 393f 4bcd 4b3f
000003b0: 4f3a 243f 114f 323f 37d2 503f d224 813f
000003c0: c009 3d3f 3ca8 4c3f 81a9 383f a32d 6e3f
000003d0: 5c84 3d3f 17e8 7f3f 0995 333f f350 4c3f
000003e0: bd61 403f 6f87 6c3f 2db9 6f3f 6c1e 7b3f
000003f0: 557c 1f3f 7549 3d3f 53f8 7d3f c053 833f
0.8398966 0.69543135 0.81685174 0.6792837 0.6812173 0.75831103 0.9645007 0.7340483
0.8188669 0.8577992 0.70317984 0.8646801 0.9088221 0.69183946 0.7571623 1.0360599
0.96198124 0.93250746 0.7421197 0.9122262 0.8039942 0.72289467 1.0506687 0.85171545
1.1071199 0.7441249 1.1022165 0.8503352 0.6758995 0.75490093 1.055443 0.8846831
0.80298257 0.7950314 0.8009885 0.7511574 0.7336413 0.8226808 0.8513959 0.9445832
0.66575396 0.6669919 0.80602354 1.1130943 0.8507757 0.98609287 0.8416582 0.82222
0.8864115 1.032008 1.0174096 0.9946385 0.8453341 0.8504596 1.0642867 1.0380567
0.84645426 0.95698 0.94543713 1.0718725 0.6840633 0.8081644 0.76471394 0.9770754
0.8922391 0.87520933 0.99617505 0.7892173 0.7483143 0.795483 0.80006516 0.7479461
0.79152286 0.75670516 0.7886839 0.91687495 0.87866545 0.7557401 0.9822184 0.9930947
0.77171355 0.84966046 1.0256337 1.0947987 0.7112286 1.0354307 0.6844309 0.77685964
0.77490246 0.73181707 0.8612933 0.97042453 0.793342 0.844797 0.9652085 1.0900178
1.025467 1.0384772 1.1067042 0.75278884 -0.097269684 -0.06755096 -0.06699973 -0.062462356
-0.08461799 0.0063223536 -0.07596202 0.011922024 -0.062464263 -0.048584502 0.062472142 0.06668727
0.027902568 -0.09768541 0.05353557 -0.056896806 0.04654789 0.065956414 0.010558847 -0.016131448
-0.049972 -0.09008715 -0.010834242 0.0003872703 0.046929028 0.06786665 0.09405005 -0.001307401
-0.015735209 -0.09424797 -0.03244474 0.0042225537 -0.025888622 -0.0583406 0.05080655 0.08100007
-0.090749905 -0.0025847892 -0.04588227 0.055952508 0.064781085 -0.025405621 -0.07714187 -0.010443462
0.04123685 -0.058873195 -0.090628885 -0.091806136 -0.10114049 -0.028375406 -0.06364894 0.08012454
-0.01979884 -0.029446414 -0.03581434 0.07153348 -0.007766163 -0.042813968 -0.013771308 -0.03673469
0.016826885 0.057689823 0.042852223 0.03756885 -0.03156171 0.044931773 -0.044318352 0.06737218
-0.0702939 0.0020930427 0.026727865 0.0019262728 -0.10089674 -0.09836764 -0.0971227 -0.0786216
0.092419036 0.037392553 -0.097957775 -0.0061073173 0.021929413 -5.0604343e-05 -0.020883251 -0.026169205
-0.049833495 -0.07867019 0.020646142 -0.08226368 0.08229307 0.019879337 0.07357395 -0.015197529
0.034150515 0.08078253 -0.07907206 0.017445063 0.03066144 -0.0690482 0.092183255 0.0724894
0.73109615 0.7308444 0.850694 0.6818841 0.77711356 0.81687504 0.9525399 0.8554345
0.7155675 0.67786515 0.62849736 0.7727465 0.97381663 0.65238893 0.81494623 0.9862787
0.85102844 1.0058496 0.76425517 0.8750301 0.7813055 0.7681701 1.1086066 0.8037185
1.0564232 0.72061384 0.9665033 0.678983 0.8433632 0.6509229 1.0710256 0.9319805
0.75276494 0.75886464 0.7248606 0.7961013 0.6415147 0.69651896 0.8157076 1.0089362
0.73843 0.79944205 0.7213364 0.93038386 0.7403009 0.99963516 0.70149285 0.7981102
0.75149137 0.92394155 0.9364193 0.98093295 0.6229909 0.7394021 0.9920704 1.0259933

layer2.bias f4 [50]
00000000: 4d8f 533f f835 c4bd 2c95 4c3f 1ba2 0abd
00000010: 7606 7a3f 8e00 353d 2e99 643f 2f39 bfbd
00000020: 4051 7a3f 937a 4c3f a2e0 783f 2c80 aabd
00000030: 65d4 793f 690d 463f 0158 9fbd 4120 643f
00000040: e647 0ebc b110 343d 1a74 503f ae0f c9bd
00000050: 4e39 893b cc21 0c3d 0ee2 70bc bf96 5c3f
00000060: 5ee7 623f 3d72 573f a483 533f a418 4e3f
00000070: d382 653f 401f 593f 8e33 9cba 29f3 703f
00000080: d9e6 aebd a3ef 683f c9e3 cdbd 8fc2 533f
00000090: e7f7 5e3f 8930 473f 0600 633f 677a 6d3f
000000a0: e763 413f c215 09bd 07de 503f 786a 603f
000000b0: dd00 5a3f 0017 c2bd 6a0d 693f 72c4 a0bd
000000c0: a3c1 773f aea1 243d
0.82640535 -0.09580606 0.7991512 -0.033846002 0.9766611 0.044189982 0.89296234 -0.09337079
0.9778023 0.79874533 0.9721776 -0.08325228 0.97589713 0.7736421 -0.07780457 0.89111716
-0.008684134 0.04396123 0.81427157 -0.09817444 0.0041877395 0.03421192 -0.014702333 0.8616752
0.8863429 0.8415869 0.8262274 0.8050635 0.89652747 0.8481331 -0.001191722 0.9412103
-0.085401244 0.90990657 -0.10053212 0.8271875 0.8709702 0.77808434 0.8867191 0.92764896
0.75543064 -0.033468015 0.81588787 0.8766246 0.8515757 -0.09477043 0.91036093 -0.07849969
0.9677984 0.040193252

layer3.weight f4 [1, 50]
00000000: 99f6 713f fcb2 abbc c903 8a3f 1672 21bc
00000010: 2ca3 7e3f db74 d5bc 27f6 813f a7f7 8ebd
00000020: 9a24 7a3f 0db9 7f3f 5059 763f 1ac7 1ebd
00000030: 1d44 7f3f d65e 813f beed 7fbc 0c37 753f
00000040: c090 14bd 9534 b6bd 570f 8b3f d11f aabc
00000050: 0be1 c2bd 1300 cfbd 4704 45bd ef16 8b3f
00000060: 0e3b 8a3f b16a 813f 7547 7b3f a5ee 823f
00000070: a2c4 843f 045b 833f e887 7cbc 80cc 843f
00000080: 057f c2bd 6a09 883f 0676 11bc ed4a 833f
00000090: 7589 6f3f b6c5 883f 38e2 863f 473b 803f
000000a0: 6034 8a3f f89e 02be 73d4 813f 6021 883f
000000b0: 7246 833f f043 99bd c229 763f 80d2 cdbd
000000c0: e90b 7e3f e492 77bd
0.94516903 -0.02095937 1.0782405 -0.00985386 0.9946773 -0.026056698 1.0153245 -0.0698083
0.977121 0.9989174 0.9623003 -0.038764097 0.9971331 1.0107067 -0.015620647 0.9578712
-0.036270857 -0.08896748 1.0864056 -0.020767124 -0.0951558 -0.10107436 -0.048099782 1.0866374
1.0799272 1.0110685 0.9815591 1.0229079 1.0372508 1.0262151 -0.015413262 1.0374908
-0.09496883 1.0627873 -0.008878237 1.025724 0.9356912 1.0685337 1.0537786 1.001809
1.0797234 -0.12755954 1.0142959 1.0635185 1.0255873 -0.07483661 0.9615747 -0.10049915
0.99236923 -0.06044282

exp_avg f4 [100, 25]
00000000: e230 bcc7 59bf 4ec7 e697 98c7 f102 97c7
00000010: 9c38 bf47 ba36 d8c6 f465 6b47 ccb5 7d46
00000020: 0000 0000 b811 b4c6 961f 4bc7 a3c4 5346
00000030: 31e7 9ec6 9456 2247 7aad 2747 36fb 8e46
00000040: 7f62 ca46 b442 40c8 f0fe 84c7 798b 92c6
00000050: bf4a 9b47 5567 67c4 6e2c 9446 84fa 8447
00000060: 7bb9 2847 20e4 d2c7 e75a 80c7 030b a1c7
00000070: cd14 9fc7 4255 ca47 7a42 21c7 01db 7a47
00000080: 5458 1d46 0000 0000 6b7c 84c6 0c18 46c7
00000090: 2a58 9546 0f79 dcc5 5118 3247 0d86 6a47
000000a0: 9005 9946 efdc e846 377e 43c8 2939 85c7
000000b0: 3ae1 98c6 bff7 a247 36a2 2ec5 6acf 9f44
000000c0: d372 8947 e464 3547 de86 e6c6 045b 9a47
000000d0: fa70 77c7 69c6 77c7 69ee b247 8fb5 4247
000000e0: 3e98 8845 5151 4047 0000 0000 eb96 06c7
000000f0: 3c12 8dc7 38ce a6c5 20bd 2cc7 77fd 1247
00000100: 5f31 0746 2be4 9b46 e54d da46 5da3 00c8
00000110: d606 dbc7 0179 1c47 3830 6d47 3dec 2b46
00000120: d8ca 9f47 c73a 5e47 9065 de46 1fe8 c645
00000130: 7088 0d47 e9fc 88c5 74bd 6ac7 a22b 9347
00000140: c866 2345 e599 c046 9bd9 aa46 0000 0000
00000150: 5b26 25c7 c244 88c7 a344 0bc6 de3e 69c6
00000160: d7c2 4a46 c969 a146 7e8f 4b46 0289 d145
00000170: 0f10 c3c7 9983 d9c7 ac43 1e47 3870 6d47
00000180: 745e 32c6 8d29 7847 d71d 8447 ed14 3947
00000190: 50ec 62c7 b99c b8c7 b69c 65c6 878e 7bc7
000001a0: b984 8247 b587 8bc7 813e b647 9db3 55c6
000001b0: 0000 0000 7612 a9c6 f5a3 1fc7 cae6 b646
000001c0: fae8 e346 6cb0 fa46 e4ac 9647 af49 5c46
000001d0: 458e 5846 16bd 06c8 1dfb 9ec7 1304 4dc7
000001e0: da2e 8a47 2a63 82c6 884c 5946 4b64 8647
000001f0: 0aa6 5747 aec0 62c6 c9cb 9e47 9718 a8c7
00000200: 0f19 83c7 0597 a547 2b78 8b47 f5e2 a5c6
00000210: 95bf 0447 0000 0000 bfff 05c7 2abe 5cc7
00000220: 796a 0c46 7c47 5ac7 ce9d bb46 f981 d945
00000230: 6554 6a46 a542 e446 040b 1fc8 c8a6 c5c7
00000240: 6a55 8547 2975 7247 fd1a 8ac5 e897 5047
00000250: c739 6c47 a7e5 0f47 c4f6 9847 d228 4748
00000260: 8358 3cc8 e754 fdc6 5ab8 ac47 6e07 0148
00000270: 154f bfc7 b0a9 3e48 0000 0000 fa54 bbc6
00000280: af0e 8ac7 213b e5c4 a42a 95c7 5e76 4047
00000290: 45be b6c7 6a0e 1447 e5ba 4c47 11da 0946
000002a0: 0c63 9ac7 064e 19c6 15e1 2347 ff20 d147
000002b0: d7da 4948 035c 8947 ea36 3847 9e3e cfc7
000002c0: b7fb 84c7 d51f 8fc7 2f24 92c7 3e56 b847
000002d0: f20c 34c7 8b37 8047 bfc6 cc44 0000 0000
000002e0: 653b a8c6 117a 45c7 cfc2 8446 7b1f c6c6
000002f0: e2f3 1d47 7bca 9747 74c4 8846 8551 c346
00000300: 5f5f 38c8 ebbe 44c7 7d2c 29c7 e396 9547
00000310: 7ff1 97c5 766f 2045 64ab 8347 5814 3347
00000320: e34c 88c6 ac7c 8047 b013 4bc7 1b4e 89c7
00000330: 9527 af47 21e2 e246 e220 1b46 37b3 0d47
00000340: 0000 0000 81be 12c7 956f 83c7 d6e3 dac5
00000350: 72c3 20c7 8197 e146 a3bb e345 261b 7f46
00000360: 8f2f a846 9cc9 fcc7 84d7 d5c7 bd4f 4847
00000370: 1d66 8447 5749 eb44 80ba 8547 5fc9 6b47
00000380: 5800 0f47 d5c8 b0c7 a2fc 50c7 2a5a d0c7
00000390: f571 87c7 eff3 ab47 4145 4143 9054 0647
000003a0: ffe5 a0c5 0000 0000 2fea 7bc6 f0e3 10c7
000003b0: d368 f046 4267 9bc6 c959 1747 364a 6247
000003c0: 4aee 7646 a13c fa46 d7fe 5bc8 0a70 5fc7
000003d0: cdf8 0ec4 0b8f 8547 96f6 66c6 b9fe 90c6
000003e0: 2388 7f47 4c4c 3047 23a5 68c3 0f82 5e46
000003f0: 2401 9ec4 a01b 4ec7 d830 7f47 00fb b3c6
-96353.766 -52927.348 -78127.8 -77317.88 97905.22 -27675.363 60261.953 16237.449
0.0 -23048.86 -51999.586 13553.159 -20339.596 41558.58 42925.477 18301.605
25905.248 -196874.81 -68093.875 -18757.736 79509.49 -925.61456 18966.215 68085.03
43193.48 -107976.25 -65717.805 -82454.02 -81449.6 103594.516 -41282.477 64219.004
10070.082 0.0 -16958.209 -50712.047 19116.082 -7055.1323 45592.316 60038.05
19586.781 29806.467 -200184.86 -68210.32 -19568.613 83439.49 -2794.1382 1278.4817
70373.65 46436.89 -29507.434 79030.03 -63344.977 -63430.41 91612.82 49845.56
4371.0303 49233.316 0.0 -34454.918 -72228.47 -5337.7773 -44221.125 37629.465
8652.343 19954.084 27942.947 -131725.45 -112141.67 40057.004 60720.22 11003.06
81813.69 56890.777 28466.781 6365.015 36232.438 -4383.614 -60093.453 75351.266
2614.4238 24652.947 21868.803 0.0 -42278.355 -69769.516 -8913.159 -14927.717
12976.71 20660.893 13027.873 6705.126 -99872.12 -111367.195 40515.67 60784.22
-11415.613 63529.55 67643.68 47380.926 -58092.312 -94521.445 -14695.178 -64398.527
66825.445 -71439.414 93309.01 -13676.903 0.0 -21641.23 -40867.957 23411.395
29172.488 32088.21 77145.78 14098.421 13859.567 -137972.34 -81398.23 -52484.074
70749.7 -16689.582 13907.133 68808.586 55206.04 -14512.17 81303.57 -86065.18
-67122.12 84782.04 71408.336 -21233.479 33983.582 0.0 -34303.746 -56510.164
8986.618 -55879.484 24014.902 6960.2466 14997.099 29217.322 -162860.06 -101197.56
68266.83 62069.16 -4419.3735 53399.906 60473.777 36837.652 78317.53 203939.28
-192866.05 -32426.451 88432.7 132125.72 -97950.164 195238.75 0.0 -23978.488
-70685.37 -1833.8478 -76373.28 49270.367 -93564.54 37902.414 52410.895 8822.517
-79046.09 -9811.506 41953.082 107073.99 206699.36 70328.02 47158.914 -106109.234
-68087.43 -73279.664 -74824.37 94380.484 -46092.945 65647.086 1638.2108 0.0
-21533.697 -50554.066 16993.404 -25359.74 40435.883 77716.96 17506.227 25000.76
-188797.48 -50366.918 -43308.49 76589.77 -4862.187 2566.9663 67414.78 45844.344
-17446.443 65785.34 -51987.688 -70300.21 89679.164 29041.064 9928.221 36275.215
0.0 -37566.504 -67295.164 -7004.4795 -41155.445 28875.752 7287.4546 16326.787
21527.78 -129427.22 -109487.03 51279.74 67788.23 1882.2919 68469.0 60361.37
36608.344 -90513.664 -53500.633 -106676.33 -69347.914 88039.87 193.27052 34388.562
-5148.7495 0.0 -16122.546 -37091.938 30772.412 -19891.629 38745.785 57930.21
15803.572 32030.314 -225275.36 -57200.04 -571.8875 68382.086 -14781.646 -18559.361
65416.137 45132.297 -232.64507 14240.515 -1264.0356 -52763.625 65328.844 -23037.5

exp_avg_sq f4 [100, 25]
00000000: 5c1c 0551 9212 0a51 af11 f150 c2bd c450
00000010: 7fb2 0851 254a ae50 2f00 e050 80a6 0751
00000020: 0000 0000 b1a5 1351 1ebf 0751 56a9 3251
00000030: 8995 b850 d0b5 3651 af17 de50 7ec6 2451
00000040: b2e0 5051 1fec 1b51 4499 e850 5d57 0051
00000050: fa18 bb50 a403 2051 2fae c150 38c1 0551
00000060: 243d 0951 75b7 1151 5b50 3551 b833 f750
00000070: 47ad c750 1a5b 0651 ab8f bc50 6206 ea50
00000080: 5075 1151 0000 0000 e2e0 1451 7aca 0c51
00000090: 0025 3351 dd35 c650 7310 3751 fad0 0451
000000a0: 36df 2451 72c0 4f51 fc6d 3451 4b80 e750
000000b0: 8bab 1a51 c71e be50 264f 2551 b22c 0851
000000c0: 402b 0c51 0249 1151 66f7 0651 024f f950
000000d0: 19be 0351 6c13 f150 a268 1851 6dad cb50
000000e0: 11f5 fa50 e7bf 2b51 0000 0000 c204 1b51
000000f0: f087 0f51 8ec7 3a51 6a0a c950 6fb2 3f51
00000100: 1f58 0651 bf8b 2e51 c6af 5c51 319c 1451
00000110: 4912 0851 6a8d 2e51 72bc eb50 8cb4 2651
00000120: 6cfd f050 f328 1151 dbbc 1451 cbb5 e050
00000130: 3a8e d450 2243 d550 fd74 b650 8853 f950
00000140: 246c 9b50 85bf d050 aad5 0451 0000 0000
00000150: 55a5 0851 a570 fc50 3496 2451 fb6a a550
00000160: 61ba 2751 9edf d250 e448 1951 4c58 4251
00000170: e6df 0051 496e dc50 1a9d fb50 e640 ae50
00000180: cfaf 1351 28b9 b550 f8d3 f950 dd02 ff50
00000190: 67c6 f250 e7f9 2151 6b67 f050 9bb7 c350
000001a0: 0dbc 1851 2104 b550 78fe e850 dfbd 0b51
000001b0: 0000 0000 da15 1151 e0ca 0051 19d8 2e51
000001c0: 3947 be50 5512 2e51 b2ed fa50 d1d2 2151
000001d0: a8e3 4851 b1c3 2251 ba7a b850 ca66 b550
000001e0: cde2 c150 f2f2 1f51 0353 0851 a7a9 0451
000001f0: fe15 0b51 ea5c f950 1fa9 ee50 ffb3 f350
00000200: 3325 c150 fc38 ff50 2827 a950 bfa7 ed50
00000210: a391 2451 0000 0000 60e9 1051 62a1 0951
00000220: f88a 2b51 cbf3 d650 17da 3a51 a1d2 f650
00000230: fa98 2251 03ae 4d51 7b43 1251 d64a f150
00000240: ce75 3a51 b38c b650 8f91 1d51 9e64 c550
00000250: c0aa 0851 454e 0d51 b4d5 b350 45de 0551
00000260: 7555 1551 7d60 0851 8dbb c250 a749 1d51
00000270: 5e8a fb50 c0b3 3551 0000 0000 6925 ae50
00000280: 9b3f e050 0c10 cf50 8b66 cc50 83d0 cd50
00000290: c641 8550 32a2 b150 4e24 c650 64c0 2c51
000002a0: 303d dc50 27f1 1f51 8c56 1351 0243 0151
000002b0: caf0 0f51 6d84 0f51 4f63 1151 0266 1251
000002c0: f9a9 3551 a766 f650 927f d650 6347 0651
000002d0: 5d63 b950 3643 e750 b1c3 0e51 0000 0000
000002e0: d0dd 1351 2654 0b51 be4a 3151 9a44 c750
000002f0: c8da 3451 f8db fb50 5d81 2351 74e4 4c51
00000300: 6c11 2c51 bec7 d750 f4c2 0c51 bcd8 cd50
00000310: de05 2151 6403 0951 3f29 0851 a51e 0d51
00000320: 3676 e250 33f3 d250 5f59 d450 557e b550
00000330: e61d f450 81cd 9d50 fd71 d850 7e05 1151
00000340: 0000 0000 6f4d 0651 8d3a 0051 0dba 2151
00000350: b4b4 a650 7f24 2651 df52 e750 4f34 1551
00000360: 8890 3c51 07a6 0051 0563 ea50 58cd 2d51
00000370: 5ade ab50 6409 1151 af3f c450 a64b fc50
00000380: 4372 0251 f470 0c51 0818 2e51 6be0 eb50
00000390: 673a be50 760b 0151 f580 a550 1ed1 d650
000003a0: 35f7 0a51 0000 0000 4e8c 0f51 3bfc 0551
000003b0: 2900 2b51 cbd2 bf50 85c3 3051 7367 0051
000003c0: 1bf2 1e51 ff6b 4851 c4a0 3451 0266 de50
000003d0: 14b9 1451 42d8 b350 06e2 1f51 6294 0151
000003e0: a4bf 0651 e133 0c51 e363 d450 5de8 dd50
000003f0: 57fd c550 95d2 a950 0587 e550 84e7 9050
3.5731653e+10 3.7063565e+10 3.2355744e+10 2.6406162e+10 3.669439e+10 2.3392758e+10 3.0064867e+10 3.6413374e+10
0.0 3.9633752e+10 3.6439187e+10 4.7959073e+10 2.4774461e+10 4.9045897e+10 2.9808753e+10 4.423155e+10
5.6070185e+10 4.1855087e+10 3.1218868e+10 3.4451345e+10 2.511181e+10 4.295349e+10 2.5995344e+10 3.590452e+10
3.683977e+10 3.911551e+10 4.8671076e+10 3.3178894e+10 2.6800175e+10 3.606588e+10 2.5308256e+10 3.1410295e+10
3.9046152e+10 0.0 3.9964254e+10 3.7793276e+10 4.8088744e+10 2.660335e+10 4.9140937e+10 3.565261e+10
4.425747e+10 5.5767933e+10 4.843371e+10 3.1071558e+10 4.1518936e+10 2.5517505e+10 4.4374843e+10 3.655409e+10
3.7626315e+10 3.8999695e+10 3.6229767e+10 3.3461637e+10 3.5364377e+10 3.2356655e+10 4.0911905e+10 2.7337124e+10
3.3682917e+10 4.6103687e+10 0.0 4.1612485e+10 3.852881e+10 5.0138243e+10 2.6983223e+10 5.1458273e+10
3.6062753e+10 4.6854304e+10 5.9240112e+10 3.9892226e+10 3.6526395e+10 4.6856053e+10 3.1639966e+10 4.4749603e+10
3.234512e+10 3.896608e+10 3.9926477e+10 3.0160083e+10 2.8528726e+10 2.8623573e+10 2.4488962e+10 3.3464009e+10
2.0860445e+10 2.8017699e+10 3.5657523e+10 0.0 3.6680585e+10 3.3881926e+10 4.4180914e+10 2.2202014e+10
4.5024154e+10 2.8302963e+10 4.1147056e+10 5.2169064e+10 3.4594513e+10 2.9585721e+10 3.3771016e+10 2.338791e+10
3.964436e+10 2.4390484e+10 3.3531347e+10 3.4227022e+10 3.258471e+10 4.348015e+10 3.2266476e+10 2.626872e+10
4.0999375e+10 2.4295574e+10 3.1271928e+10 3.7511623e+10 0.0 3.8946054e+10 3.457247e+10 4.6934364e+10
2.553871e+10 4.672699e+10 3.3679053e+10 4.3439165e+10 5.3925806e+10 4.369174e+10 2.4760406e+10 2.43473e+10
2.602293e+10 4.2935984e+10 3.6594266e+10 3.5611374e+10 3.733559e+10 3.3468928e+10 3.2032487e+10 3.2709278e+10
2.5923525e+10 3.4255397e+10 2.2703325e+10 3.1897549e+10 4.4176126e+10 0.0 3.8899417e+10 3.694488e+10
4.6048182e+10 2.8850412e+10 5.015768e+10 3.3127991e+10 4.364695e+10 5.5211733e+10 3.9262335e+10 3.2385708e+10
5.005252e+10 2.4501393e+10 4.2296996e+10 2.6493645e+10 3.6686266e+10 3.793147e+10 2.4137015e+10 3.5934982e+10
4.008649e+10 3.6608397e+10 2.613657e+10 4.2221597e+10 3.3761194e+10 4.87753e+10 0.0 2.3373498e+10
3.0098119e+10 2.7791483e+10 2.7434179e+10 2.7623954e+10 1.7885442e+10 2.3841575e+10 2.6594144e+10 4.6372635e+10
2.955998e+10 4.2934104e+10 3.9550763e+10 3.4698437e+10 3.8638756e+10 3.852513e+10 3.9027274e+10 3.929854e+10
4.8765047e+10 3.307138e+10 2.8789477e+10 3.6045206e+10 2.4882375e+10 3.1039533e+10 3.8323032e+10 0.0
3.96926e+10 3.7400764e+10 4.759145e+10 2.6745295e+10 4.854779e+10 3.3803977e+10 4.3890627e+10 5.5000383e+10
4.6189167e+10 2.8961534e+10 3.7785387e+10 2.7628265e+10 4.322426e+10 3.6779213e+10 3.655047e+10 3.7881532e+10
3.0395183e+10 2.831323e+10 2.8501015e+10 2.4359643e+10 3.27648e+10 2.1179927e+10 2.9050792e+10 3.89289e+10
0.0 3.6051546e+10 3.4421133e+10 4.3413197e+10 2.2374883e+10 4.4598555e+10 3.1047743e+10 4.0051732e+10
5.0617418e+10 3.453383e+10 3.1458863e+10 4.6654652e+10 2.3067808e+10 3.8932988e+10 2.6340063e+10 3.386253e+10
3.501642e+10 3.7699404e+10 4.6732968e+10 3.1658826e+10 2.5531988e+10 3.464019e+10 2.2213536e+10 2.8832231e+10
3.730331e+10 0.0 3.853339e+10 3.59664e+10 4.590263e+10 2.5746102e+10 4.7449657e+10 3.4468213e+10
4.266667e+10 5.3800333e+10 4.8486957e+10 2.9849817e+10 3.9922516e+10 2.4138355e+10 4.291824e+10 3.4783764e+10
3.61713e+10 3.7635363e+10 2.8506528e+10 2.9783943e+10 2.6573715e+10 2.2793202e+10 3.0806649e+10 1.9448734e+10

exp_avg f4 [100]
00000000: 9857 95c8 27da 9bc8 5329 9fc8 40e4 73c8
00000010: c5f7 81c8 991f 86c8 2228 a6c8 a38a 91c8
00000020: 4b54 89c8 affa 88c8 a1e3 5bc8 1d04 89c8
00000030: 4bbc 78c8 4a2b 5fc8 388c 8cc8 e399 a8c8
00000040: 6f97 92c8 cc3b bbc8 6b09 8dc8 2f16 8cc8
00000050: 3bf0 8fc8 0fcd 8dc8 5a95 cfc8 8867 acc8
00000060: 83d1 cdc8 7994 87c8 3c2e d2c8 a898 86c8
00000070: f3f0 82c8 2faa 8bc8 7396 c4c8 eb40 91c8
00000080: 7b97 79c8 91f6 6ec8 04c9 85c8 c321 88c8
00000090: 06c4 6bc8 11ca 84c8 2f00 bcc8 7eb8 acc8
000000a0: f4d6 70c8 09fa 71c8 df7b 87c8 fd32 cfc8
000000b0: fe15 8ec8 7b15 c9c8 014e 8bc8 f372 84c8
000000c0: 6881 8fc8 0434 b9c8 c092 cac8 17db c8c8
000000d0: 007f 5cc8 71ff 93c8 bf50 e9c8 cfd0 cfc8
000000e0: 8894 acc8 1664 c6c8 45d2 b7c8 0376 dbc8
000000f0: 4697 57c8 0b59 9ec8 7283 9cc8 7fdc 70c8
00000100: 6dc9 5ac8 e35e 95c8 47fb c9c8 dc36 8bc8
00000110: 892b 64c8 fb03 8bc8 e01d 95c8 347d 82c8
00000120: 94a0 7cc8 2644 8dc8 6545 88c8 8564 9ac8
00000130: f525 95c8 109f 9dc8 1337 aec8 f322 c1c8
00000140: d71f 8dc8 e339 85c8 09d9 a1c8 11eb c0c8
00000150: d3bb a1c8 fcbc cbc8 e561 8fc8 c596 5bc8
00000160: 58d9 85c8 2af3 86c8 06b8 82c8 98e5 8ec8
00000170: a463 93c8 e5c3 84c8 df73 c1c8 d24f d3c8
00000180: b111 bbc8 413c d7c8 9752 c6c8 beb6 46c8
-305852.75 -319185.22 -325962.6 -249745.0 -266174.16 -274684.78 -340289.06 -298069.1
-281250.34 -280533.47 -225166.52 -280608.9 -254705.17 -228525.16 -287841.75 -345295.1
-300219.47 -383454.38 -288843.34 -286897.47 -294785.84 -290408.47 -425130.8 -353084.25
-421516.1 -277667.78 -430449.88 -275653.25 -268167.6 -286033.47 -402611.6 -297479.34
-255581.92 -244698.27 -273992.12 -278798.1 -241424.1 -271952.53 -385025.47 -353731.94
-246619.81 -247784.14 -277470.97 -424343.9 -290991.94 -411819.84 -285296.03 -271255.6
-293899.25 -379296.12 -414870.0 -411352.72 -225788.0 -303099.53 -477829.97 -425606.47
-353444.25 -406304.7 -376466.16 -449456.1 -220765.1 -324296.34 -320539.56 -246641.98
-224037.7 -305911.1 -413658.22 -285110.88 -233646.14 -284703.84 -305391.0 -267241.62
-258690.31 -289313.2 -279083.16 -316196.16 -305455.66 -322808.5 -356792.6 -395543.6
-289022.72 -272847.1 -331464.28 -395096.53 -331230.6 -417255.88 -293647.16 -224859.08
-274122.75 -276377.3 -267712.2 -292652.75 -301853.12 -271903.16 -396190.97 -432766.56
-383117.53 -440802.03 -406164.72 -203482.97

exp_avg_sq f4 [100]
00000000: f001 7951 5304 8b51 8947 9b51 c876 6151
00000010: 48bb 7951 bb79 8251 c310 c051 b73f 8751
00000020: 32ab 6d51 7e93 7d51 c3ca 4e51 963b 7e51
00000030: 4f26 b551 3fea 4d51 233e 9151 d404 c951
00000040: 906b a551 ea88 f451 de84 8d51 1350 9451
00000050: e5d4 7451 4398 7c51 f5f1 0952 1478 9351
00000060: c49d e251 6872 7951 0514 ec51 9de4 8251
00000070: e170 7e51 ed22 6951 9677 e751 76cd a751
00000080: e261 6551 d82c 6b51 65ea 7f51 b9bf 8251
00000090: fae2 5f51 9722 7351 fede c651 b76b dd51
000000a0: 7e69 7051 7f51 5551 94de 8251 d5b8 0752
000000b0: 7648 8b51 19fe f751 c577 8951 1467 7a51
000000c0: b972 8b51 c494 dc51 5481 f451 3a3f f551
000000d0: e81e 5351 d4d9 8951 4521 0852 bc58 0652
000000e0: 6640 a851 894b f151 fecd ec51 5bc2 0e52
000000f0: 8d4e 6a51 0063 9a51 52d4 8e51 f08c 7d51
00000100: f7ae 8251 d8ba 9951 6cff 0352 14eb 6e51
00000110: 25e7 5e51 a087 7051 d8ce 9e51 5532 6451
00000120: 3f61 8251 bbab 8851 4df8 9551 5d10 a451
00000130: 6603 8051 1229 8e51 3030 df51 3260 ee51
00000140: 5b1b 9151 7e20 8e51 2010 d951 86f7 f451
00000150: 4fa4 8d51 64f4 f151 4b74 8551 8e5a 5551
00000160: e55c 8a51 6a12 7551 5afe 7d51 19ae ad51
00000170: 6c06 8251 183b 8851 7e97 d351 9aaf f951
00000180: 8456 e351 23be 1352 0fba f151 d142 5951
6.684246e+10 7.4634125e+10 8.336501e+10 6.052253e+10 6.7036807e+10 7.0048506e+10 1.0311437e+11 7.261119e+10
6.3798714e+10 6.8068827e+10 5.5510315e+10 6.8245086e+10 9.725397e+10 5.5274893e+10 7.797659e+10 1.0792118e+11
8.8809275e+10 1.3128363e+11 7.597744e+10 7.962482e+10 6.5721487e+10 6.7805393e+10 1.4811747e+11 7.917185e+10
1.21663685e+11 6.6960392e+10 1.2674352e+11 7.0272655e+10 6.8300968e+10 6.2582084e+10 1.2426797e+11 9.0088325e+10
6.1574357e+10 6.3129354e+10 6.869682e+10 7.019529e+10 6.009911e+10 6.5266086e+10 1.0676809e+11 1.1887437e+11
6.4535126e+10 5.7262207e+10 7.026e+10 1.4573039e+11 7.477702e+10 1.3314e+11 7.380249e+10 6.721695e+10
7.486565e+10 1.18423585e+11 1.3126772e+11 1.3166597e+11 5.667229e+10 7.400813e+10 1.4616843e+11 1.4425358e+11
9.032937e+10 1.295443e+11 1.2713353e+11 1.5328652e+11 6.2896263e+10 8.288574e+10 7.668094e+10 6.8061954e+10
7.016015e+10 8.253309e+10 1.417315e+11 6.4134136e+10 5.9835044e+10 6.4566723e+10 8.525939e+10 6.125606e+10
6.999716e+10 7.337459e+10 8.051449e+10 8.8081146e+10 6.87266e+10 7.63218e+10 1.1982327e+11 1.2797701e+11
7.790365e+10 7.630381e+10 1.16534804e+11 1.315156e+11 7.604338e+10 1.2989841e+11 7.1647715e+10 5.7271706e+10
7.4283e+10 6.5785995e+10 6.8180877e+10 9.324378e+10 6.980669e+10 7.313837e+10 1.13597465e+11 1.3404912e+11
1.2205113e+11 1.5863754e+11 1.2977608e+11 5.8320556e+10

exp_avg f4 [50, 100]
00000000: 4f63 b4c6 b3c5 e0c6 304d cac6 0122 bec6
00000010: b77d 99c6 e4a4 c3c6 2818 d5c6 4d85 bec6
00000020: a5a7 c7c6 d9eb d0c6 1a9f 9bc6 c3a5 b1c6
00000030: 8b22 77c6 bcb5 e8c6 a2c2 bbc6 97f8 2bc7
00000040: 524b 31c7 d6d1 e3c6 bb41 ccc6 d9f0 36c7
00000050: 17e9 c6c6 7c50 b9c6 4795 edc6 8e70 fec6
00000060: f28a e5c6 763c bec6 140a d9c6 ff41 c3c6
00000070: 07e2 b9c6 b937 bdc6 0ac1 1dc7 292c 28c7
00000080: 39b3 b6c6 aab8 a8c6 5ed1 b9c6 3f26 cfc6
00000090: fb14 a8c6 9cd4 b6c6 41e3 f3c6 126e c4c6
000000a0: dc73 8cc6 4249 9bc6 b3ab bbc6 ee9b 08c7
000000b0: 6be6 bdc6 8465 11c7 12ee cbc6 ef7f c0c6
000000c0: ed75 dac6 ea43 d4c6 c9cf bcc6 98f6 0cc7
000000d0: a31c a7c6 afed cec6 c1ed 20c7 5737 08c7
000000e0: 5f5e fcc6 aff6 18c7 ff69 ecc6 30af 16c7
000000f0: 93e7 e1c6 3c29 afc6 5f8b dac6 4e1d 23c7
00000100: fbca f8c6 ad15 d1c6 2037 21c7 67af b6c6
00000110: 1029 8fc6 dd6b c6c6 6358 e6c6 fed5 d5c6
00000120: 0976 efc6 68e9 dfc6 0912 efc6 52ec d3c6
00000130: ce5c e7c6 d1c7 b7c6 6d32 d3c6 a8d9 3bc7
00000140: 65c1 09c7 7311 ccc6 80f7 cbc6 cfd7 fbc6
00000150: d6b1 e4c6 f00e 16c7 f271 bdc6 b675 b7c6
00000160: f9ec d5c6 7df9 b3c6 c117 d6c6 5800 38c7
00000170: 21f2 ccc6 235f b3c6 f477 ecc6 fc56 f0c6
00000180: b6f9 f0c6 a573 02c7 8351 17c7 961a 9dc6
00000190: 968d 8404 efcd d204 0000 0000 0002 a205
000001a0: 42d9 2e04 9294 6a05 0000 0000 dd3f 8204
000001b0: de38 e804 e6ea 9b05 e6ee 1a05 5e2a 8c04
000001c0: 0000 0000 985e 2304 0000 0000 0000 0000
000001d0: 0000 0000 0000 0000 a61a 9404 8797 2505
000001e0: 707c 9904 6d26 0a05 3c64 3904 7fd2 1205
000001f0: 0000 0000 f1be 8705 0000 0000 f668 8804
00000200: 0b80 7f04 8d69 ca04 0000 0000 17b5 2b05
00000210: 0000 0000 94d4 f503 0000 0000 b377 6705
00000220: b664 4a03 995a 2604 6306 d004 bf43 5a00
00000230: 0000 0000 0000 0000 955d de04 b86d 1b05
00000240: 0120 0e05 06b6 d304 0000 0000 0000 0000
00000250: e9cd f203 fd6b f704 0000 0000 291a 0604
00000260: d060 5704 d3af 1e05 ea19 3604 d6ca ef04
00000270: 0e39 9605 0000 0000 0000 0000 0000 0000
00000280: 38eb 7605 8e05 d603 006b 6a05 4350 0605
00000290: cbd9 e903 2aad 8203 5dc2 7305 5e56 ef03
000002a0: e32e c104 dc46 e705 bcc8 5b04 2279 8f05
000002b0: 6cdd 2004 bd69 b604 6d9e 9d04 4007 a004
000002c0: 1221 fd05 904a a803 55d9 8004 2fdc 3004
000002d0: 1c36 c005 0000 0000 0000 0000 0000 0000
000002e0: db03 9105 6914 e104 eec1 7504 5876 3305
000002f0: faeb 9804 dc3c ff04 3ff1 9e05 259a 5805
00000300: ed9d 8005 23e8 c604 0000 0000 0000 0000
00000310: dc77 8d04 cc7b 5705 0000 0000 b999 5305
00000320: ddda cdc6 9b40 00c7 84de e6c6 cefa d8c6
00000330: 5228 afc6 6747 dfc6 e235 f3c6 816b d9c6
00000340: d1d8 e3c6 236b eec6 8997 b1c6 69bc cac6
00000350: 6706 8dc6 69c7 04c7 9044 d6c6 ce46 44c7
00000360: ba53 4ac7 7b01 02c7 291b e9c6 7fc6 50c7
00000370: 4f00 e3c6 1c7c d3c6 7a93 07c7 362f 11c7
00000380: 24fd 02c7 8019 d9c6 0eb5 f7c6 55d5 dec6
00000390: 0a22 d4c6 c7ef d7c6 0e0d 34c7 b0ec 3fc7
000003a0: fe7e d0c6 bb8a c0c6 e80e d4c6 c867 ecc6
000003b0: b3d0 bfc6 7ca6 d0c6 8d2a 0bc7 af29 e0c6
000003c0: 8649 a0c6 4e37 b1c6 de2a d6c6 79e7 1bc7
000003d0: 3db7 d8c6 8dee 25c7 71b9 e8c6 53ae dbc6
000003e0: bb4d f9c6 ce3d f2c6 6c7f d7c6 a9e1 20c7
000003f0: 84b4 bec6 bd26 ecc6 faa8 37c7 9e74 1bc7
-23089.654 -28770.85 -25894.594 -24337.002 -19646.857 -25042.445 -27276.078 -24386.65
-25555.822 -26741.924 -19919.55 -22738.88 -15816.636 -29786.867 -24033.316 -44024.59
-45387.32 -29160.918 -26144.865 -46832.848 -25460.545 -23720.242 -30410.639 -32568.277
-29381.473 -24350.23 -27781.04 -24992.998 -23793.014 -24219.861 -40385.04 -43052.16
-23385.611 -21596.332 -23784.684 -26515.123 -21514.49 -23402.305 -31217.627 -25143.035
-17977.93 -19876.629 -24021.85 -34971.93 -24307.209 -37221.516 -26103.035 -24639.967
-27962.963 -27169.957 -24167.893 -36086.594 -21390.318 -26486.842 -41197.754 -34871.34
-32303.186 -39158.684 -30260.998 -38575.188 -28915.787 -22420.617 -27973.686 -41757.305
-31845.49 -26762.838 -41271.125 -23383.701 -18324.531 -25397.932 -29484.193 -27370.996
-30651.018 -28660.703 -30601.018 -27126.16 -29614.402 -23523.908 -27033.213 -48089.656
-35265.395 -26120.725 -26107.75 -32235.904 -29272.918 -38414.938 -24248.973 -23482.855
-27382.486 -23036.744 -27403.877 -47104.344 -26233.064 -22959.568 -30267.977 -30763.492
-30844.855 -33395.645 -38737.51 -20109.293 3.1163077e-36 4.9559883e-36 0.0 1.5235141e-35
2.0553362e-36 1.1029915e-35 0.0 3.0621502e-36 5.4595162e-36 1.4662418e-35 7.284924e-36 3.295275e-36
0.0 1.9203993e-36 0.0 0.0 0.0 0.0 3.4819106e-36 7.786094e-36
3.6084405e-36 6.4957865e-36 2.179267e-36 6.903549e-36 0.0 1.276548e-35 0.0 3.2069838e-36
3.00339e-36 4.7586905e-36 0.0 8.073642e-36 0.0 1.4448611e-36 0.0 1.0883553e-35
5.9478075e-37 1.9554807e-36 4.890643e-36 8.289497e-39 0.0 0.0 5.227789e-36 7.308217e-36
6.682686e-36 4.9773024e-36 0.0 0.0 1.4270756e-36 5.8168593e-36 0.0 1.5763636e-36
2.5317583e-36 7.461418e-36 2.1405896e-36 5.6374905e-36 1.4126891e-35 0.0 0.0 0.0
1.1610067e-35 1.2579065e-36 1.102228e-35 6.3153915e-36 1.3744512e-36 7.68047e-37 1.1461504e-35 1.4066986e-36
4.541714e-36 2.1749165e-35 2.5835499e-36 1.3492153e-35 1.8909582e-36 4.28851e-36 3.7056014e-36 3.7622477e-36
2.3804154e-35 9.891271e-37 3.0292243e-36 2.0789804e-36 1.807547e-35 0.0 0.0 0.0
1.3637151e-35 5.291599e-36 2.888866e-36 8.438276e-36 3.595174e-36 6.0006102e-36 1.4946868e-35 1.0184583e-35
1.2095075e-35 4.676276e-36 0.0 0.0 3.3259014e-36 1.0131989e-35 0.0 9.949407e-36
-26349.432 -32832.605 -29551.258 -27773.402 -22420.16 -28579.701 -31130.941 -27829.752
-29164.408 -30517.568 -22731.768 -25950.205 -18051.201 -33991.41 -27426.281 -50246.805
-51795.727 -33281.48 -29837.58 -53446.496 -29056.154 -27070.055 -34707.477 -37167.21
-33533.14 -27788.75 -31706.527 -28522.666 -27153.02 -27639.889 -46093.055 -49132.688
-26687.496 -24645.365 -27143.453 -30259.89 -24552.35 -26707.242 -35626.55 -28692.842
-20516.762 -22683.652 -27413.434 -39911.473 -27739.62 -42478.55 -29788.72 -28119.162
-31910.865 -31006.902 -27583.71 -41185.66 -24410.258 -30227.37 -47016.977 -39796.617

exp_avg_sq f4 [50, 100]
00000000: a5a2 6d4f 5450 834f 766e 5d4f 2dc4 9c4f
00000010: 4fb8 144f ad6b 694f c6c3 f74e e98d 5f4f
00000020: 63de 974f 1f28 874f d85f 844f d39d 674f
00000030: 188c 874e 590e 864f c2d2 074f 131f 764f
00000040: 8a09 124f 0dd0 8a4f 549b 464f 724c 204f
00000050: 927d 804f 6d6c 654f d8cb 614f 708c 744f
00000060: c86d 824f ec60 654f 16cc 744f 12cf 544f
00000070: 6815 724f abea 934f c742 364f f513 224f
00000080: 6a84 6e4f 9c2e 764f 3078 5d4f 019d 824f
00000090: 45ed 804f 3708 5f4f b335 2a4f ad68 234f
000000a0: 81b8 204f 6812 444f 93f7 6e4f 7cc6 774f
000000b0: bb1a 534f eef5 664f 89dc 694f 29d9 664f
000000c0: 3865 664f 0969 724f 7b4a 334f 811c 5f4f
000000d0: 55aa 864f a7ca 614f 9329 4b4f 7602 3c4f
000000e0: fc74 534f 9138 854f 1b4a 754f 5678 674f
000000f0: eb70 904f f35d 434f e6ef 814f c0cc e74e
00000100: 4351 474f 4963 364f 178a 3e4f 629e 774f
00000110: ce6c 514f 7e39 854f 89bd 5c4f 8377 914f
00000120: 9d95 5f4f f86d 694f 29a2 5d4f 7b83 444f
00000130: a143 8b4f a261 324f d90b 844f f2ae 294f
00000140: 06e2 554f 55e4 384f a11c 774f 6259 824f
00000150: c869 8b4f e21b 694f 5bc7 7a4f 1845 9c4f
00000160: 2720 764f e619 544f 1b92 734f 3786 344f
00000170: 959c 8e4f 7ab0 534f cb39 714f 7cf5 6f4f
00000180: 3f3b 274f fd6b 494f 628b 804f 715e 8b4f
00000190: 0981 9540 e52c 6941 0000 0000 3b54 df42
000001a0: 8e6a 2040 1c1d 6a42 0000 0000 f408 b240
000001b0: 4f6e 6541 d613 6542 5379 6541 87e0 6c40
000001c0: 0000 0000 5a0b 0c40 0000 0000 0000 0000
000001d0: 0000 0000 0000 0000 0ea4 ba40 69e1 0f42
000001e0: c373 c840 4d65 a241 1d58 3440 a46d 6341
000001f0: 0000 0000 d5d0 4c42 0000 0000 9254 9e40
00000200: b0cf 2240 ae4e 2e41 0000 0000 12df fa41
00000210: 0000 0000 bb8d 803f 0000 0000 f8f0 6342
00000220: 70f0 563e ae78 eb3f 18de d540 3902 2b38
00000230: 0000 0000 0000 0000 d45d 5241 439d bc41
00000240: ffdf ab41 8d2f 6b41 0000 0000 0000 0000
00000250: c6d0 7a3f d09b a041 0000 0000 bf04 993f
00000260: 895a 4540 cdda b641 bff4 ae3f 36db 9641
00000270: 8735 5b42 0000 0000 0000 0000 0000 0000
00000280: f6f4 9f42 698b 103f 6210 5542 7ae6 3741
00000290: 2879 8f3f 3434 b33e 96e3 9b42 8cb4 733f
000002a0: 4bc6 1e41 9635 0b43 fb82 4d40 9127 a442
000002b0: 75c8 0740 59e2 b340 7664 d340 ed5f 0641
000002c0: 232f 8043 dffc f03e f2af 2040 830f 943f
000002d0: 35ec ad42 0000 0000 0000 0000 0000 0000
000002e0: 14f7 4b42 a7e9 8441 417a 8040 64fe b341
000002f0: 1669 f540 83ea aa41 5723 8542 962d 7642
00000300: bcc1 8c42 8c52 2841 0000 0000 0000 0000
00000310: 6706 d240 75a4 7342 0000 0000 58ac 1b42
00000320: 205c ac4f 7cd1 be4f b33f a04f a379 e54f
00000330: d8be 534f 74ba a84f 328d 2a4f a87a a14f
00000340: ab24 de4f 9097 c44f e519 c04f 4a42 a74f
00000350: af45 c14e ebd7 c24f d214 414f 62dc a94f
00000360: 0939 4d4f e67d c24f 0af0 8e4f a8d1 604f
00000370: a334 ba4f 45b9 a54f 3e09 9d4f 2b3a b14f
00000380: e4ef b54f 61ad a54f 3a73 aa4f a0b6 994f
00000390: 45af af4f f508 d84f e898 7a4f 8c91 654f
000003a0: 166f ac4f 916d b24f da0d a04f d025 be4f
000003b0: 40e1 ba4f d665 a14f b46c 734f 7bff 634f
000003c0: dce8 654f fcc7 8c4f 51e1 ac4f 4fea ac4f
000003d0: 7ed2 974f c5fe a04f 220b aa4f 6e66 a74f
000003e0: 479a a64f 4b11 a94f 279e 774f 7387 9a4f
000003f0: b3d9 c34f 97f4 a24f c257 8d4f f83b 824f
3.9868593e+09 4.4061594e+09 3.715004e+09 5.2602045e+09 2.4951068e+09 3.916148e+09 2.0784013e+09 3.7506194e+09
5.095868e+09 4.535107e+09 4.4417475e+09 3.88588e+09 1.1370527e+09 4.4981745e+09 2.2787364e+09 4.1292316e+09
2.4500987e+09 4.657781e+09 3.3320684e+09 2.6893645e+09 4.311426e+09 3.8490883e+09 3.7882327e+09 4.1028444e+09
4.3764654e+09 3.8483343e+09 4.1070157e+09 3.5703404e+09 4.0614892e+09 4.96326e+09 3.0578296e+09 2.719217e+09
4.0016553e+09 4.1302497e+09 3.7156413e+09 4.382655e+09 4.3260667e+09 3.7418575e+09 2.855646e+09 2.7415462e+09
2.6964462e+09 3.2895406e+09 4.0092024e+09 4.1569802e+09 3.5417444e+09 3.874877e+09 3.9235443e+09 3.8729915e+09
3.8653932e+09 4.0669699e+09 3.0080028e+09 3.7431872e+09 4.5186196e+09 3.7881546e+09 3.4084995e+09 3.154278e+09
3.5476593e+09 4.4701537e+09 4.1152745e+09 3.8834232e+09 4.8466386e+09 3.2777142e+09 4.3599657e+09 1.9444777e+09
3.3439916e+09 3.05996e+09 3.196721e+09 4.154352e+09 3.5135688e+09 4.470275e+09 3.703409e+09 4.8810573e+09
3.7511242e+09 3.9162982e+09 3.718392e+09 3.296951e+09 4.6729303e+09 2.992743e+09 4.430738e+09 2.8468147e+09
3.5883597e+09 3.1019717e+09 4.1458486e+09 4.373792e+09 4.677931e+09 3.9109187e+09 4.207369e+09 5.2435476e+09
4.1293023e+09 3.558467e+09 4.0864387e+09 3.0286948e+09 4.785253e+09 3.5515581e+09 4.0470966e+09 4.0258427e+09
2.8056778e+09 3.3792975e+09 4.3132365e+09 4.6764447e+09 4.6720014 14.573461 0.0 111.66451
2.5065036 58.528427 0.0 5.563593 14.339431 57.26937 14.34212 3.701204
0.0 2.1881928 0.0 0.0 0.0 0.0 5.832526 35.970127
6.264131 20.299463 2.817878 14.214268 0.0 51.203938 0.0 4.9478235
2.5439262 10.894209 0.0 31.358921 0.0 1.0043253 0.0 56.98532
0.20990157 1.8396204 6.683361 4.0771647e-05 0.0 0.0 13.147907 23.576788
21.484373 14.699109 0.0 0.0 0.97974813 20.07608 0.0 1.1954573
3.0836508 22.856836 1.366844 18.857037 54.802273 0.0 0.0 0.0
79.97844 0.56462723 53.266 11.493769 1.1208849 0.35000765 77.9445 0.9519737
9.923411 139.20932 3.2111194 82.07728 2.12161 5.6213803 6.6060133 8.398419
256.36826 0.47067925 2.5107388 1.1567234 86.96134 0.0 0.0 0.0
50.991287 16.614088 4.0149236 22.499214 7.669078 21.364508 66.56902 61.544518
70.37839 10.520153 0.0 0.0 6.5632815 60.910603 0.0 38.918304
5.7834373e+09 6.4027996e+09 5.3770583e+09 7.699908e+09 3.5524997e+09 5.6615834e+09 2.86138e+09 5.4183404e+09
7.45389e+09 6.5965343e+09 6.445845e+09 5.612279e+09 1.6212847e+09 6.5378606e+09 3.2393672e+09 5.699585e+09
3.4430671e+09 6.5260616e+09 4.796192e+09 3.7718364e+09 6.2480236e+09 5.560765e+09 5.269257e+09 5.9467587e+09
6.104795e+09 5.5592064e+09 5.7193564e+09 5.157765e+09 5.8949985e+09 7.2489313e+09 4.2043249e+09 3.851521e+09
5.7859226e+09 5.98705e+09 5.3705247e+09 6.380298e+09 6.2706483e+09 5.4156114e+09 4.0839875e+09 3.8251712e+09
3.8572431e+09 4.723833e+09 5.800895e+09 5.8020736e+09 5.094309e+09 5.4021023e+09 5.7057126e+09 5.617016e+09
5.590257e+09 5.6729656e+09 4.154337e+09 5.185136e+09 6.5716485e+09 5.467877e+09 4.7426775e+09 4.3699364e+09

exp_avg f4 [50]
00000000: 49a8 7dc6 6a7f c305 26bf 90c6 d914 0608
00000010: 5680 85c6 645a a108 4547 88c6 730d e912
00000020: 2d1f 83c6 ad11 86c6 4524 81c6 e698 0508
00000030: cad3 85c6 83a8 87c6 fb34 4a2d a68b 80c6
00000040: af52 000a 0449 ee07 86d9 91c6 8700 d606
00000050: 4f1d 110a e299 5c0a e695 e408 c0e1 91c6
00000060: e1f9 90c6 a5b3 87c6 d0bb 83c6 a04c 89c6
00000070: 703a 8bc6 80be 89c6 1a01 920c 5443 8bc6
00000080: 4edd 5b09 09ab 8ec6 beee ba16 f8ac 89c6
00000090: a010 7bc6 6171 8fc6 9c74 8dc6 c175 86c6
000000a0: d3f2 90c6 ea88 c408 fb23 88c6 29c3 8ec6
000000b0: 51a8 89c6 ad7e 381e cd0b 81c6 b5e7 3628
000000c0: cd2f 85c6 bc48 2f09
-16234.071 1.8384516e-35 -18527.574 4.0348665e-34 -17088.168 9.711086e-34 -17443.635 1.4707683e-27
-16783.588 -17160.838 -16530.135 4.0202963e-34 -17129.895 -17364.256 1.1494135e-11 -16453.824
6.178527e-33 3.5853175e-34 -18668.762 8.049863e-35 6.9870084e-33 1.0621557e-32 1.3757492e-33 -18672.875
-18556.94 -17369.822 -16861.906 -17574.312 -17821.219 -17631.25 2.2495525e-31 -17825.664
2.6465223e-33 -18261.518 3.0200588e-25 -17622.484 -16068.156 -18360.69 -18106.305 -17210.877
-18553.412 1.1828509e-33 -17425.99 -18273.58 -17620.158 9.767075e-21 -16517.9 1.0153273e-14
-17047.9 2.1099058e-33

exp_avg_sq f4 [50]
00000000: b63f d24d 21e5 bd42 fde2 214e 13b1 c344
00000010: 27b0 fd4d b698 1946 ce51 064e 47b7 3b46
00000020: ea5d e54d 0286 ff4d 3dfb e34d 5efd b145
00000030: 353c fd4d 8b8e 054e 78b2 1d44 d315 e04d
00000040: 2c3f 8c46 f6dd 7945 3b12 284e e3ff c443
00000050: 900b 2248 469b 7d48 e27d 4746 5c47 284e
00000060: bd07 254e f88c 034e ad73 f24d 5b5a 0a4e
00000070: b401 104e 2436 0b4e 6e30 8345 e52a 114e
00000080: 91e5 a447 9217 1c4e 6c1a 3844 f623 0a4e
00000090: 6f8c bf4d 176a 1f4e 11b6 174e 1387 014e
000000a0: 2652 244e 6c75 5447 6932 064e 22a3 1a4e
000000b0: b01c 0a4e 6242 7048 54c1 e44d 04a5 8048
000000c0: 6fd0 f94d 8f41 5e47
4.4092384e+08 94.94752 6.790019e+08 1565.5336 5.320225e+08 9830.178 5.63377e+08 12013.819
4.8101715e+08 5.3587155e+08 4.7811165e+08 5695.671 5.3107267e+08 5.6017786e+08 630.7886 4.6994083e+08
17951.586 3997.8726 7.0494176e+08 393.9991 165934.25 259693.1 12767.471 7.058122e+08
6.9218694e+08 5.5176346e+08 5.084584e+08 5.8029434e+08 6.040077e+08 5.838953e+08 4198.0537 6.0887686e+08
84427.13 6.546976e+08 736.41284 5.7940314e+08 4.0170646e+08 6.686325e+08 6.363229e+08 5.432783e+08
6.892118e+08 54389.42 5.6286266e+08 6.485956e+08 5.79284e+08 246025.53 4.797344e+08 263464.12
5.2389834e+08 56897.56

exp_avg f4 [1, 50]
00000000: 606c 24ca 2dfd d385 fa26 1eca 4575 b788
00000010: 2c72 25ca 6864 8b89 5471 23ca 3c56 6392
00000020: eff0 23ca 0686 23ca f91f 28ca a659 a987
00000030: 7bd4 24ca 0067 25ca f06f f5ac d510 29ca
00000040: 7c1f 1e8a 6b8b 3c87 0a3e 1fca 4ef6 4887
00000050: de35 fb89 90cb 188a b095 0589 b301 1eca
00000060: 6b39 20ca 00b7 24ca 9961 27ca 7a81 23ca
00000070: d2a3 23ca 84e9 23ca 53dd a18c f688 23ca
00000080: ea37 1489 f18c 1fca 59a2 9f95 83f3 23ca
00000090: a381 1eca 6217 22ca 81f8 20ca 1d48 25ca
000000a0: 0773 20ca 314c 5a88 b152 22ca 9b33 21ca
000000b0: 92b7 22ca 54ae 1a9d d846 29ca da33 0ea6
000000c0: d71b 25ca 67a7 9189
-2.693912e+06 -1.9935347e-35 -2.5911665e+06 -1.1041482e-33 -2.710667e+06 -3.3557454e-33 -2.677845e+06 -7.173486e-28
-2.6860118e+06 -2.6791695e+06 -2.7545582e+06 -2.5480984e-34 -2.7005748e+06 -2.709952e+06 -6.9757464e-12 -2.7699732e+06
-7.613345e-33 -1.4184519e-34 -2.6090265e+06 -1.511871e-34 -6.047671e-33 -7.35682e-33 -1.6079675e-33 -2.5887808e+06
-2.6251148e+06 -2.698688e+06 -2.7423742e+06 -2.6788785e+06 -2.6810765e+06 -2.685537e+06 -2.4939182e-31 -2.6793575e+06
-1.7841143e-33 -2.6140762e+06 -6.447573e-26 -2.6861768e+06 -2.5969688e+06 -2.6557045e+06 -2.6373442e+06 -2.7079752e+06
-2.6288018e+06 -6.569155e-34 -2.6595002e+06 -2.6411268e+06 -2.6659565e+06 -2.0471856e-21 -2.77343e+06 -4.933642e-16
-2.7051418e+06 -3.5064905e-33
