PIA/Tarefa72/pesos.pt (torch, 14324 bytes, 6 tensors)

layer1.weight f4 [50, 4]
000000 52 77 e7 be b7 21 bf be 98 63 db bd 81 db 11 3e
       -0.45208222 -0.3733041 -0.107123554 0.1424389
000010 cf c5 f4 be de 9e 77 be 18 ae bf bd bd ad b1 be
       -0.47807166 -0.24181697 -0.093593776 -0.34702864
000020 75 02 03 bd 8c 7a 1e 3e 87 d7 59 3e 43 ea c1 be
       -0.031984765 0.15476435 0.21273623 -0.3787404
000030 6b f0 b0 be ba e7 ac 3e ca b1 1a bf ff cf 25 be
       -0.34558424 0.33770543 -0.60427535 -0.16192625
000040 c4 57 05 bf 2b 24 ef 3e 3b 5e 2d bf 37 aa 46 3d
       -0.52087045 0.4670728 -0.6772191 0.048502173
000050 a4 37 ab 3d 62 d7 66 be c1 7a 17 bf 2b cc 00 3e
       0.08360222 -0.225431 -0.5917168 0.12577884
000060 47 a4 07 ba 09 32 be bc 94 be 99 be 49 c5 12 bf
       -0.00051743205 -0.023217218 -0.30028212 -0.57332283
000070 3c 96 b7 3e 62 73 a1 be c1 fa b1 be bf 8b ad bd
       0.35856807 -0.31533343 -0.34761623 -0.0847392
000080 b3 5a 8f 3e 73 83 03 3f 21 4c 12 3f d4 e6 1e be
       0.27998886 0.5137245 0.57147413 -0.15517741
000090 93 d4 c0 3d 10 c2 80 3e 56 1f 04 bf 6f 53 18 bf
       0.09415545 0.25148058 -0.51610315 -0.5950231
0000a0 57 ab 05 bf 51 c3 5f 3f ea cd 32 be 44 7f f6 3d
       -0.5221457 0.87407404 -0.17461362 0.12035993
0000b0 e1 28 55 be 57 99 02 bf 84 05 c9 bd b9 0f 3a 3f
       -0.20816375 -0.5101523 -0.09815505 0.7268024
0000c0 d7 86 b7 3e 5e e9 00 3d ce 41 3c 3e 65 a0 bf 3e
       0.35845062 0.031472556 0.18384477 0.3742706
0000d0 40 5f 83 3e c6 b3 07 bf a1 43 85 be dc 10 30 3f
       0.25658607 -0.5300869 -0.2602816 0.68775725
0000e0 99 d1 c2 bd 18 c7 02 bf 70 fc 0b bf d6 22 24 bf
       -0.09512634 -0.5108504 -0.54682064 -0.64115655
0000f0 58 50 ca be 83 26 af 3e b4 cc ca 3e 60 b4 ed be
       -0.39514422 0.3420907 0.396093 -0.46426678
000100 82 ed e7 3e b5 9c 1b 3f 37 cf e1 3e d6 6d 32 3e
       0.45298392 0.6078599 0.44103405 0.17424712
000110 45 70 af 3e 48 e8 c9 bc 49 2a 1a 39 7a 2c 0c 3f
       0.34265342 -0.024646893 0.00014702337 0.54755366
000120 7c 23 76 3e 28 2a c3 be 66 c4 f8 3e d1 0b a2 3e
       0.24036974 -0.381181 0.4858734 0.3164964
000130 99 22 59 be af 62 d6 3e 9a 85 af be 7c c8 59 be
       -0.21204604 0.41872165 -0.34281617 -0.21267885
000140 c1 03 32 3d 58 de ee 3e cb dc ec be 47 24 c9 3e
       0.04346061 0.4665401 -0.46262202 0.3928549
000150 1f 94 04 3e 3a 92 fc be 29 f9 c3 3e 70 46 0e bf
       0.12947129 -0.49330312 0.38276032 -0.5557623
000160 25 78 94 3e d7 55 ed 3e 02 2c 7a 3d c0 14 9c 3e
       0.28997913 0.46354553 0.061077125 0.3048458
000170 b8 21 fa be b0 f8 01 bd bf 7e a2 3e b9 45 18 bf
       -0.4885385 -0.031731308 0.31737325 -0.5948139
000180 3d 94 42 3e db 47 e9 3e d9 6b d7 3e 01 db 08 bf
       0.19001861 0.45562634 0.4207447 -0.53459173
000190 e4 29 cb be 9d 24 2a 3e 63 48 bb be a7 1c f0 be
       -0.39680398 0.1661553 -0.36578664 -0.4689686
0001a0 43 a6 1c 3f 75 4c a9 3e 42 73 ad be b9 a6 06 bf
       0.61191195 0.33066145 -0.33876997 -0.5259815
0001b0 b0 4b c0 bd d3 d2 9d be bd 2b 21 bf 72 af b5 be
       -0.09389436 -0.3082491 -0.62957364 -0.35485417
0001c0 9b 3f f6 be 07 a4 d0 3d fc c2 8c 3e 16 bf 22 bf
       -0.48095402 0.10187536 0.2749251 -0.63572824
0001d0 d8 59 65 3d ca 4c b8 be 44 fe 2f 3f da be df 3e
       0.055993885 -0.35996085 0.68747354 0.43700296
0001e0 d2 08 dc 3d 40 06 a9 be 08 22 52 3e 4a 5a 62 3e
       0.1074387 -0.3301258 0.20520794 0.22104755
0001f0 b2 fb 27 bf 37 f0 ad 3d 73 b9 80 3e c1 cf 62 be
       -0.6561843 0.08493083 0.25141487 -0.22149564
000200 7d fd c6 3e 21 ab e2 3e 16 c3 c4 3e f8 20 31 3e
       0.3886527 0.44271186 0.3843009 0.17297733
000210 a8 8b 04 be 7b 72 e0 3d 41 35 fe be 2f 8f 02 bf
       -0.129439 0.109593354 -0.49650005 -0.5099973
000220 53 94 b3 be a9 9e 90 3d 58 ef 00 3f f8 81 09 3f
       -0.350741 0.07061512 0.5036521 0.5371394
000230 0b 04 6f 3d 0c 18 57 be 73 40 12 be a6 fa 24 bf
       0.058353465 -0.21005267 -0.14282398 -0.6444496
000240 ac e5 1c 3f b8 8a 99 be be 84 11 3d e8 14 97 be
       0.6128795 -0.29988647 0.035526983 -0.29508138
000250 7e 8c 9b 3d 16 fc af 3d 60 ac 83 bd 44 d2 c7 be
       0.07595156 0.085930035 -0.06429362 -0.39027607
000260 b2 78 d2 be c2 d7 b7 be e7 e3 b2 be 7d 74 41 be
       -0.41107708 -0.35906798 -0.349395 -0.18892093
000270 43 4a 48 3e 62 d4 8a be fe 03 94 3e 71 1b 00 3d
       0.19559579 -0.2711516 0.28909296 0.03127617
000280 a0 03 54 3e 10 8b b8 be f4 4d e8 bd ca b3 4e 3f
       0.20704508 -0.36043596 -0.113429934 0.80743086
000290 4e ac f9 3e 71 d1 e7 3e cc 91 19 3d f1 48 25 3f
       0.4876427 0.4527698 0.03749256 0.64564425
0002a0 0a 09 f0 be c6 95 11 bf 19 0f f8 be 55 f3 2b bd
       -0.46881896 -0.5686916 -0.4844902 -0.041980106
0002b0 a5 0c d2 be 6d a9 33 3f a4 35 91 be 0c 6c 16 3d
       -0.41025272 0.701804 -0.28361237 0.036724135
0002c0 ef ba 8c bc f1 cf 8c 3e c8 35 1b bf 9e 5a 9c be
       -0.01717898 0.27502397 -0.6062894 -0.30537885
0002d0 25 4f 83 be 82 9d d6 be 34 7b 08 3b db e7 a4 3d
       -0.2564632 -0.41917044 0.0020825388 0.080520354
0002e0 9e d7 5e 3e 8a a7 05 3f 50 98 0f bf 39 95 94 be
       0.21761939 0.5220877 -0.56091785 -0.29020098
0002f0 1e 46 81 3e 97 dd fd 3e 34 28 bf be 93 9f a5 bd
       0.25248808 0.49583122 -0.3733536 -0.08087077
000300 6e 3d eb 3e 4a e0 2f 3e 0b 8c ea be c0 a8 9f bd
       0.45945305 0.17175403 -0.4580997 -0.077958584
000310 48 0d f0 3c 69 4e 27 3e 83 5a 13 bd 71 46 fa bd
       0.029303208 0.16338505 -0.03597499 -0.12220467

layer1.bias f4 [50]
000000 71 bc 88 3c 66 17 c9 3e 24 27 aa 3e ba 28 6c 3e
       0.016691418 0.39275664 0.33232987 0.23062411
000010 86 16 58 bd 6e bd cd bd 4d 9c 48 be e5 ff 15 3f
       -0.052755855 -0.100458965 -0.19590874 0.5859359
000020 ca 9d 07 bf 68 6a fb 3d 13 d2 57 3e 8a 7f 22 3e
       -0.5297514 0.12276155 0.2107623 0.15868965
000030 14 27 17 be b7 5f 90 bd 2e c7 b9 be 67 af 28 3f
       -0.14761001 -0.07049506 -0.36284775 0.6589264
000040 30 13 60 bc b3 5d d1 3e 0a 37 36 be f5 af ea 3e
       -0.01367645 0.408918 -0.17794433 0.4583737
000050 8d ce 4d be da eb 04 3f f3 0a fc be 91 59 1c bd
       -0.20098324 0.5192238 -0.49227104 -0.038171355
000060 d4 a2 b4 bd eb 8b 67 3c a6 ec 09 3f e6 1f f5 bc
       -0.088201195 0.01413248 0.5387672 -0.029922437
000070 47 5e f8 3e ba a4 dc be 01 bb d1 3e de 8b 08 be
       0.48509428 -0.43094426 0.40962985 -0.13334605
000080 e4 24 c9 bd 48 ca 7a be 14 02 17 3c ff 14 0f 3f
       -0.098214895 -0.24491227 0.009216804 0.5589141
000090 37 d1 31 3f 63 36 e6 3e ca 15 c5 3e c7 b1 f0 be
       0.6945986 0.4496337 0.38493186 -0.47010633
0000a0 b9 25 a0 be fe 30 bf bd 53 05 00 3c 47 21 98 3e
       -0.3127878 -0.093355164 0.007813769 0.2971289
0000b0 31 37 58 3d 30 1e af be 79 84 16 3f 51 cf 98 3e
       0.05278701 -0.3420272 0.5879589 0.2984567
0000c0 91 3b 9a be ef aa cd 3e
       -0.3012357 0.40169474

layer2.weight f4 [50, 50]
000000 20 66 e1 bd 3f ae c6 3c e5 1b 7f bd d0 fa 15 3e
       -0.11005807 0.024253009 -0.06228246 0.14646459
000010 da 34 ea 3b c1 7b bf 3d 2e 4e 34 3d eb 45 37 3d
       0.0071474137 0.09349776 0.04401987 0.044744413
000020 cb fd 14 be 47 2c 43 3e 83 01 40 bd 2f dc 3e be
       -0.1454994 0.19059859 -0.04687644 -0.18638681
000030 8c cb 16 be ab cf 9e 3b ce a9 f6 3d 66 54 2b 3d
       -0.14726084 0.0048465333 0.120441064 0.041828535
000040 cd f8 71 3d 7f be 16 bd 6e fb 3d bd ef 03 78 3d
       0.059075166 -0.036802765 -0.04638236 0.060550626
000050 ff 27 1d 3e b2 20 0e be ff b3 17 be e7 a4 0c 3e
       0.15347289 -0.1387966 -0.14814757 0.1373478
000060 39 f9 ce 3c 0c a2 51 3e b3 b8 3f bd c4 dd ac 3d
       0.025265323 0.20471972 -0.046807002 0.08440736
000070 f7 b6 4c 3e ce 4a 67 3d 5b 00 40 bd 89 de 59 3e
       0.1999167 0.056467824 -0.04687534 0.21276297
000080 33 5d 64 bc 4f a8 59 3e 10 ec 18 bd a6 cb 36 3e
       -0.013938236 0.21255611 -0.0373345 0.17851123
000090 07 99 dd bc c9 2f 3d 3d 71 22 39 bd 6e 20 35 be
       -0.027050508 0.04618815 -0.04519886 -0.17688152
0000a0 66 79 30 bc 35 0d 9c bd c6 95 c4 3c a4 eb 09 3e
       -0.010771131 -0.076197065 0.023997199 0.13468796
0000b0 28 f7 18 3e 77 26 e0 bd 93 82 53 3e 29 e5 0e 3e
       0.14938033 -0.109448366 0.20655279 0.13954605
0000c0 0d 7e 02 bb 3a 28 20 3c d0 c2 22 bd 58 ac ed 3d
       -0.0019911558 0.009775216 -0.03973657 0.116051376
0000d0 94 a2 8b 3e d2 97 3f 3e 6c aa ea 3c fa 08 6d 3d
       0.27272475 0.18710259 0.028645717 0.05786989
0000e0 ad 81 35 bd e9 52 99 3e 55 fc a5 be 8a c2 34 3d
       -0.04431312 0.29946068 -0.32419077 0.04413084
0000f0 b1 c9 f6 3d 07 6f 0a be dd 5e b8 3c 15 fd 02 be
       0.12050188 -0.13518916 0.022506172 -0.12791856
000100 a1 54 69 3d ce 7a 5a 3e af 53 c2 3c 97 bf c5 bd
       0.056965474 0.21335909 0.023721544 -0.096556835
000110 b3 70 2b be 17 93 3a 3e 5e de 0e bc 47 d7 dd 3d
       -0.1674221 0.18220173 -0.008720009 0.108320765
000120 5c 6f d7 be 72 57 34 bd f8 08 b4 be 91 79 3c 3e
       -0.42077148 -0.044028707 -0.35163093 0.18405749
000130 92 1d 24 3e 7c 75 30 3e cd 0c 89 3e 8d 58 0b be
       0.16026905 0.17232317 0.2676758 -0.13607998
000140 54 73 ae 3d 1c e2 0e be e5 b5 f9 bd 44 91 5e 3d
       0.08518091 -0.13953441 -0.12192897 0.054337755
000150 2c ac b1 be 4d 30 da 3e 82 cb 71 3e 4a b6 35 3e
       -0.3470167 0.42614976 0.23612788 0.17745319
000160 f1 61 58 3e 51 b4 55 be 1f 94 ef bd eb 90 b5 bd
       0.21131112 -0.20869567 -0.11698174 -0.088655315
000170 0d 3a 7a be 12 c0 9e 3e 2c 62 4e 3e 3e ea fb be
       -0.24436207 0.31005913 0.20154637 -0.4920215
000180 ac 31 d7 3e 43 2d 27 3e 66 a5 48 3d 4d 1f 5c 3e
       0.42030084 0.1632586 0.04898586 0.21496315
000190 65 e4 0c 3e af 3e 0a 3e 2a 51 c4 3e b1 7d 86 bd
       0.13759 0.13500474 0.38343173 -0.065669425
0001a0 5d e6 1b be 0f 53 97 3d 7e 82 fb bd 56 c1 5b 3d
       -0.15224595 0.07388889 -0.12280749 0.053651176
0001b0 16 61 90 be aa d1 8f be b9 8a c3 3e 4e 33 3a bd
       -0.2819907 -0.28089648 0.38191774 -0.045459084
0001c0 1c 79 a2 3c 93 50 5c bd fe fc 50 3e 8f 50 d8 3d
       0.01983314 -0.05378778 0.20409009 0.1056224
0001d0 28 a7 1a be 46 11 6c bc 1a a4 24 bd 2f 77 af 3e
       -0.15102828 -0.014408415 -0.040195562 0.34270617
0001e0 9d cc b5 3d 80 4d 8d 3e 3f 45 da be 11 7b 0c 3e
       0.088769175 0.2759819 -0.42630956 0.13718821
0001f0 43 10 b8 be 15 20 c6 bc 41 4f db 3e 71 16 0d 3e
       -0.35949907 -0.02418522 0.42833903 0.13778092
000200 d3 58 12 3f af e0 a6 be a1 54 68 bc 31 1e 50 be
       0.57166785 -0.32593295 -0.014180333 -0.20324017
000210 66 5f 62 3d bf 22 8e be a9 2b 99 be 52 b4 11 3f
       0.05526676 -0.27760884 -0.29916123 0.5691577
000220 29 cd 98 3e 81 f1 09 3f 9a d4 eb 3c ce c7 37 be
       0.29844025 0.5388413 0.0287879 -0.17947313
000230 01 28 6b be e0 c5 79 be 2c ae 9f be af 41 df 3e
       -0.22964479 -0.2439189 -0.3118757 0.436048
000240 22 b5 9f bd de 8e 07 bf 7e 31 0f 3f 58 94 b0 3e
       -0.0779822 -0.52952373 0.55934894 0.34488177
000250 24 b8 4d be 32 ae 2a 3e fc 49 a5 3d e6 f0 5c bd
       -0.20089775 0.16668013 0.08070752 -0.053940676
000260 b6 c9 98 bd e0 0f 20 3e 2b a3 84 3e 4f f8 93 bd
       -0.07460348 0.15631056 0.25905737 -0.072250955
000270 be 29 a0 3e 69 76 70 be be 3f b8 3e 25 08 a5 3e
       0.31281847 -0.2348267 0.3598613 0.32232776
000280 1a 42 e2 bd 01 36 fd 3d e1 6b 35 3e e6 51 02 3d
       -0.11047764 0.12363816 0.17716934 0.031816386
000290 c7 48 16 bd 04 67 0c 3d 2e a6 b9 3d 48 f5 12 3e
       -0.0366905 0.03427793 0.090648994 0.1435138
0002a0 bf 23 8f 3d 41 a2 e4 bd 63 b7 c9 3d 5b c5 88 bd
       0.0698924 -0.1116376 0.09849431 -0.066782676
0002b0 2f 42 e1 3e 06 06 5f bd a0 d8 31 3f 8e 48 88 3e
       0.43995807 -0.054449104 0.6947117 0.26617855
0002c0 10 e9 14 be a5 98 85 3d fc 22 4f be 9d 69 a5 3e
       -0.14542031 0.06523255 -0.20228189 0.3230714
0002d0 aa b4 94 bd 8c 8a 9c 3e e3 68 25 3e 52 7a ed 3e
       -0.072610214 0.30574453 0.16153292 0.46382385
0002e0 ed d6 ca 3e f5 59 a1 be 03 a7 69 be 10 bc ba bd
       0.396171 -0.31513944 -0.22817616 -0.09117901
0002f0 32 85 21 3e 20 05 a8 3e 58 7b c3 3e 3a c1 87 3e
       0.15773466 0.3281641 0.3818004 0.26514608
000300 fb 2c c9 3e 01 ca 51 bd 90 d8 84 3e f3 a9 b8 3e
       0.3929213 -0.051218037 0.25946474 0.3606716
000310 07 c5 cf be 9f 5b a7 be 72 d6 01 3e 42 3e a9 bd
       -0.40580007 -0.3268709 0.1267946 -0.08263828
000320 ad 6c 8b bd cb e4 d4 3d 1d 7d b8 bd c6 f2 ba bd
       -0.06807838 0.10395201 -0.090082385 -0.091283366
000330 ed ea 90 bc 89 47 47 bd 18 ac ec 3d 99 dc e9 3c
       -0.017690146 -0.048652206 0.11556262 0.028547572
000340 49 0e 6e 3d 2f 26 77 3d d5 f7 fd 3d 36 1a 5a 3d
       0.058119092 0.06033915 0.12400786 0.053247653
000350 ac fb 12 be 34 2e 48 bd a3 34 94 bd ef e1 8d bd
       -0.14353818 -0.048872188 -0.07236602 -0.06927859
000360 a9 ba 82 3b fa ad a5 3d 6f 55 b7 bd af 97 10 be
       0.003989537 0.08089824 -0.08951842 -0.14120363
000370 7c cf 6e bd 18 e6 03 be 76 76 a9 3d 90 83 e8 bd
       -0.05830334 -0.12880743 0.08274548 -0.113532186
000380 ed 6e c3 3d f7 1b cd bd a3 1d e4 bd df 4c 59 bd
       0.09542642 -0.100150995 -0.11138465 -0.053051826
000390 3a 4a bb bb fa fd 16 bc a3 8a 9c bd 17 c5 4b 3d
       -0.0057156356 -0.009215826 -0.0764363 0.049748506
0003a0 38 f6 b1 3c d1 cc bf 3d 8d e8 71 3d af 16 9d bc
       0.021723852 0.093652375 0.05905967 -0.019175855
0003b0 69 5a 00 be 7a bb 9a 3d ea 80 43 bd 14 ee 4a bc
       -0.12534489 0.075552896 -0.047730364 -0.012385864
0003c0 85 22 41 3d c4 99 10 be e8 98 6b bd 33 97 2a 3c
       0.04715206 -0.14121157 -0.05751887 0.010412025
0003d0 f8 61 2e 3d 98 80 2f bd 90 9a 47 3d 5c aa cb 3d
       0.0425739 -0.042847246 0.048731387 0.09944603
0003e0 4e cd 0b be 92 a1 06 bd b0 78 dc 3d 67 d1 76 bd
       -0.13652536 -0.03286893 0.10765207 -0.060258295
0003f0 41 5d 49 bd 12 0e 47 bc 4c b1 f3 bc b3 7e ee bc
       -0.0491612 -0.012149351 -0.029747628 -0.02911315

layer2.bias f4 [50]
000000 d8 d8 92 bd 52 28 61 3e dd 4f 76 3e 56 62 0e bd
       -0.07170266 0.21988037 0.24053903 -0.03476175
000010 6f b5 2a bc 93 33 0e 3e db 38 e2 3c 23 1b 41 be
       -0.010419234 0.13886862 0.027615001 -0.18858008
000020 fc 96 9f 3d 43 ac a0 bd d9 9e b6 3c 59 00 11 bd
       0.0779247 -0.07845356 0.022292541 -0.035400722
000030 b4 e3 b3 3c 54 44 ff bd c2 11 da 3d db 69 fe bd
       0.021959163 -0.124642044 0.10647918 -0.12422534
000040 7e 88 0e bc 23 cf 51 3e 40 e1 0b be a7 7d 92 3d
       -0.008699534 0.20489173 -0.13660145 0.071528725
000050 c2 fc 4a 3e f8 97 4b 3e 2a f6 08 3c 7c 2f 6b 3c
       0.19822982 0.1988219 0.008359471 0.014354583
000060 52 8b 93 bd 89 01 61 3d 16 10 2c 3e c9 0a 88 bc
       -0.072043076 0.054933105 0.16803011 -0.016606705
000070 39 1d 53 3e 29 f5 68 3e 97 e0 a4 3e a0 d1 a9 3d
       0.20616616 0.22749771 0.32202598 0.08291936
000080 15 2f e2 3d 9c e3 b8 bd 99 7a 80 bd 14 7d 03 bc
       0.110441364 -0.09027788 -0.06273384 -0.008025426
000090 44 b5 d0 bd 3c 9b 34 be de 19 3f 3d 3c 19 a6 3e
       -0.10190824 -0.17637342 0.04665553 0.32441127
0000a0 6c 03 8b 3e d4 bd 34 3e 83 0c 25 bd f4 8e f3 3d
       0.27151048 0.17650539 -0.040295135 0.118925005
0000b0 1e 26 33 bd 56 29 a2 bd b4 0a 96 3c 58 22 a4 3d
       -0.043737523 -0.079180405 0.01831565 0.08014363
0000c0 82 4e 12 be cb 78 b7 3d
       -0.14287761 0.08958586

layer3.weight f4 [3, 50]
000000 c0 43 ed 3d 81 a5 08 3e f4 08 82 3d ae d1 3c 3e
       0.11585188 0.13344385 0.06349364 0.18439361
000010 5a 69 ac 3d 8b d3 a8 be 37 53 09 be cc 20 01 3d
       0.08418532 -0.32973894 -0.1341065 0.03152542
000020 1c 36 b7 3d 6e a1 46 3e a1 d5 17 3e 91 0c 2b 3e
       0.089458674 0.19397518 0.14827587 0.16704012
000030 37 92 0e 3e 81 38 9d 3d c8 35 05 3c 8b 73 b3 be
       0.13922964 0.07676793 0.008130498 -0.3504909
000040 ff 83 1a be e8 9b a1 be b6 aa ed ba a5 2f 86 be
       -0.15089415 -0.3156426 -0.0018132541 -0.26208225
000050 ad 7f e9 be 98 71 93 3d 74 f0 56 be 7a e4 28 3e
       -0.4560522 0.07199401 -0.20990163 0.16493407
000060 7b 64 d2 be b2 9d 78 be 90 09 ca be 37 55 7f 3e
       -0.41092286 -0.24278906 -0.3946042 0.2493485
000070 39 8b a0 be c0 d9 e0 be 46 8f cd be 02 04 d1 be
       -0.31356218 -0.4391613 -0.4014837 -0.4082337
000080 53 57 11 3e 10 70 b1 3d 90 4f 41 be 71 82 75 be
       0.14193468 0.08663952 -0.18878007 -0.2397554
000090 9b 8c 6f 3e 41 7d 2c 3f 02 12 54 be 33 d6 b3 be
       0.2339348 0.6737862 -0.20709994 -0.3512436
0000a0 e0 e7 84 be 71 d2 ec bd 3b 6f 0a 3e 09 9c 62 be
       -0.25958157 -0.11563576 0.13518994 -0.22129835
0000b0 c6 2c 5b 3e e3 60 61 be 65 d4 d5 bc bd bc 10 3e
       0.21403798 -0.22009616 -0.026102254 0.14134498
0000c0 c9 33 4a bd c8 33 67 3e b7 ce 5f be b7 77 8d 3e
       -0.049365792 0.22578347 -0.21856199 0.27630398
0000d0 e7 1f e6 3e 86 13 ad be 03 2a b1 3d d0 c7 69 3b
       0.44946215 -0.33803958 0.08650591 0.0035672076
0000e0 c3 e3 87 be 0c 2e 13 bf d3 ea 19 3e 0b 65 a8 be
       -0.26540956 -0.57492137 0.15030985 -0.3288959
0000f0 0b 61 d9 3e 77 05 53 be 05 e5 d5 3e 5f da 3c bd
       0.4245685 -0.20607553 0.4177629 -0.046106692
000100 1a 1f bd 3e 6f 13 b5 be 2a 53 d2 be 35 38 96 3c
       0.3693779 -0.3536639 -0.41079074 0.018337348
000110 bc 5c 14 bd 3e 75 8e be 36 91 13 3e 55 77 96 3e
       -0.03622125 -0.27823824 0.14410862 0.29387918
000120 b3 e1 0d bd 9e 0b 58 3e da 26 b8 be 7f b5 c1 3e
       -0.03463907 0.21098182 -0.3596714 0.37833783
000130 29 06 7f 3e 35 5f 31 be 33 c0 fc 3e a1 62 e7 3d
       0.24904694 -0.17321475 0.49365386 0.11298109
000140 1d 46 bd 3d 48 b0 f7 3c 80 37 e3 3e b6 e7 55 3d
       0.09241889 0.030235425 0.4437828 0.05222293
000150 80 3a 55 be bc c4 81 3d fd ce ac bd e5 09 2a bf
       -0.20823097 0.06336352 -0.084379174 -0.6642135
000160 a5 c3 92 be a1 a8 29 3e 64 eb 62 3e d9 dc ef 3e
       -0.2866489 0.16568233 0.22160107 0.4684818
000170 30 37 5b be b6 ce ba bc 9d e6 74 be e6 02 a5 be
       -0.21407771 -0.022803646 -0.23916097 -0.32228774
000180 41 f7 9b bd 03 42 b5 3e 51 4e a6 be 93 f3 36 be
       -0.07615519 0.35401925 -0.32481626 -0.17866354
000190 73 ca 41 be 1c 8f 21 bf 84 6c 05 bf 25 eb d1 3e
       -0.18924884 -0.6310899 -0.52118707 0.40999714
0001a0 7f 8c dd bd 6e 3d 4b 3e e8 c6 64 3e b1 e8 bf 3e
       -0.10817813 0.19847652 0.22341502 0.37482217
0001b0 e3 aa 1b bf ab 8e a7 3e 24 cc e3 be a3 91 02 be
       -0.6080763 0.32726035 -0.44491684 -0.12750868
0001c0 bb da b3 be 50 34 d0 bc aa 59 0e bf 36 a5 bf 3e
       -0.35127816 -0.02541557 -0.55605567 0.37430733
0001d0 a0 e6 87 3e 1c f7 f5 3d 5d 66 5f bd 8d 99 a5 3e
       0.2654314 0.12010023 -0.05454098 0.32343712
0001e0 7e 9b 04 3e 88 3e 17 bf b2 8a 80 3e 72 ce 04 bf
       0.1294994 -0.5907979 0.25105816 -0.5187751
0001f0 dd 72 f2 3e 54 ea 73 be bf 27 63 bd 15 02 01 be
       0.4735326 -0.23819858 -0.055457827 -0.1259845
000200 23 82 84 be e9 35 59 3e 61 ff 8c bd 02 10 c1 3d
       -0.25880536 0.21211971 -0.06884647 0.094268814
000210 61 e3 2e bf b2 39 d3 3d 2c 20 c4 3e 12 0e 41 3e
       -0.683157 0.10313739 0.38305795 0.18853024
000220 16 8f 20 bd dd 29 20 be 68 88 cd 3e d6 11 30 bd
       -0.039198957 -0.1564097 0.40143132 -0.04298576
000230 ce b0 b9 be 7b 23 b8 be 9a 34 c7 bd 42 5d 7a 3e
       -0.36267704 -0.3596457 -0.0972683 0.24449638
000240 31 45 52 be be b9 06 3f 12 e1 da 3d c1 e7 1d bf
       -0.20534207 0.5262717 0.1068746 -0.61681753
000250 d9 2f 9d 3e f6 37 9a bd
       0.30700567 -0.07530205

layer3.bias f4 [3]
000000 df 8e 3e 3d 05 5e ae 3b 5e b9 ff 3c
       0.04652297 0.0053212666 0.03121632
